best_gru_model.pth (torch, 178565 bytes, 9 tensors)

gru.weight_ih_l0 f4 [192, 33]
0	0x3d00cf39	0.031447623
1	0x3e3bc6a5	0.18337496
2	0xbe5f9f9c	-0.2183823
3	0x3cba3f0f	0.022735147
4	0xbc70ab11	-0.014689223
5	0xbe0d9bc9	-0.13828959
6	0xbb039307	-0.0020076649
7	0x3da24eca	0.07925184
8	0x3e2546c0	0.1614027
9	0x3e356983	0.17716031
10	0x3d023b43	0.031794798
11	0xbd642281	-0.055696968
12	0x3ab07f7f	0.0013465731
13	0xbe3c5690	-0.18392396
14	0xbd4fc139	-0.05072138
15	0xbe5060d2	-0.20349434
16	0xbe0ffa10	-0.14060235
17	0xbc76b7cf	-0.015058472
18	0x3d9d0f13	0.07668891
19	0x3dae4892	0.085099354
20	0x3de688f8	0.112565935
21	0x3dc4f6b5	0.09617368
22	0x3d25afa8	0.040450722
23	0x3e00771d	0.12545438
24	0x3cc518ab	0.024059614
25	0xbb89f548	-0.004210148
26	0x3d908c2b	0.07057985
27	0xbb73c8ea	-0.0037198612
28	0x3db1856c	0.08668026
29	0x3d3500c2	0.044190176
30	0x3d9ca285	0.07648186
31	0x3c98abe7	0.018636657
32	0xbd8fcd1c	-0.070215434
33	0xbc9da495	-0.019243518
34	0xbd0a70b2	-0.03379888
35	0x3ef66df5	0.48130766
36	0x3de1d485	0.11026863
37	0x3dce2b11	0.10066808
38	0xbe7e2cca	-0.24821773
39	0x3dfa6ff6	0.12228386
40	0x3c9cdad1	0.019147309
41	0xbcd0c34c	-0.02548375
42	0xbc8a44ef	-0.016878573
43	0xbd147a86	-0.03624966
44	0x3d40d9d7	0.04708275
45	0xbe4ab339	-0.1979493
46	0x3cf949c9	0.030430691
47	0xbdd556b7	-0.1041693
48	0x3c360684	0.011109952
49	0xbdc85272	-0.0978135
50	0xbd8037f8	-0.06260675
51	0x3dc1cdf5	0.09463111
52	0x3d4a3a5d	0.049372066
53	0x3def8471	0.11695183
54	0x3e207c4a	0.15672413
55	0x3dd53190	0.10409844
56	0x3d09ecf7	0.033673253
57	0x3df89822	0.12138392
58	0x3e45cd86	0.19316682
59	0x3dfc950b	0.12333115
60	0x3ca78264	0.020447917
61	0x3e0af07d	0.13568301
62	0x3ade70de	0.0016970893
63	0x3e1436a4	0.14473969
64	0x3dca5782	0.09879972
65	0x3e687d9b	0.22704165
66	0x3e3271bf	0.17426203
67	0x3ddc3576	0.10752384
68	0x3e93fff6	0.2890622
69	0x3df60ec8	0.12014538
70	0xbe3a134d	-0.18171425
71	0x3ddc965d	0.10770867
72	0x3ccfc086	0.025360357
73	0x3db15d7a	0.08660407
74	0xbd0d522f	-0.034502205
75	0xba9482bb	-0.0011330465
76	0x3d35fd4a	0.04443101
77	0x3e387763	0.18014292
78	0x3de230a2	0.11044432
79	0xbd90ff83	-0.07079985
80	0xbd01b092	-0.03166253
81	0xbdb9c75a	-0.090712264
82	0xbd292c1f	-0.041301843
83	0x3c72a2e7	0.014809347
84	0x3e9f631e	0.31130308
85	0x3e885b96	0.26632375
86	0x3e360bf7	0.17778002
87	0x3e963852	0.29339844
88	0xbceb35ea	-0.028712232
89	0xbe26e3d2	-0.16297844
90	0x3e87ccfd	0.2652358
91	0xbe1fc9af	-0.1560428
92	0x3e36c912	0.1785014
93	0xbe1ae45a	-0.15126172
94	0x3db9b677	0.090680055
95	0xbcfcc9b6	-0.030857902
96	0xbcf507fb	-0.029911032
97	0x3bda2c13	0.006658086
98	0x3e1d96d7	0.15389572
99	0x3e612820	0.21987963
100	0x3e98bc5f	0.29831216
101	0x3e4ecf14	0.20196182
102	0xbe4f3a79	-0.2023715
103	0x3e08019e	0.13281867
104	0x3e772773	0.24136142
105	0xbe882d97	-0.26597282
106	0x3d944374	0.07239428
107	0xbcc6a9e0	-0.024250925
108	0xbc8d5b24	-0.017255373
109	0x3dc8b79f	0.09800648
110	0x3d5281e7	0.051393416
111	0xbe0328d8	-0.1280855
112	0xbd757972	-0.059930272
113	0x3df30e53	0.118679665
114	0xbd763a15	-0.060113985
115	0x3d148748	0.036261827
116	0xbc3a3975	-0.011366238
117	0x3e273045	0.16327007
118	0x3e3debb9	0.18546952
119	0xbbbf1ea7	-0.0058325115
120	0x3c0403d7	0.008057556
121	0x3ea3a9bb	0.31965432
122	0x3e044ded	0.12920351
123	0x3db01a28	0.08598739
124	0x3ea2e669	0.31816414
125	0x3dadf6b7	0.08494323
126	0xbb419676	-0.0029539145
127	0x3e0cb759	0.13741817
128	0xbe9057c7	-0.2819197
129	0x3d1a5439	0.037677977
130	0x3e635f71	0.22204377
131	0xbd8b1004	-0.06790164
132	0x3e6da50a	0.23207489
133	0x3de338b9	0.11094803
134	0xbe5fa968	-0.21841967
135	0xbe402846	-0.18765363
136	0xbe7bec96	-0.24601969
137	0x3ef8f881	0.48627093
138	0xbdb310ba	-0.08743425
139	0x3e3b4764	0.18288952
140	0x3dcc76f7	0.09983628
141	0x3d985b13	0.07439246
142	0x3dd0b07a	0.1018991
143	0xbe23bed9	-0.15990771
144	0x3e9adf00	0.3024826
145	0xbd8b854b	-0.06812533
146	0xbe277e5e	-0.16356799
147	0xbe1b41b2	-0.1516178
148	0xbdcf22e5	-0.101140775
149	0x3b52e2d5	0.003217866
150	0x3e2ae423	0.1668859
151	0x3e1d999e	0.15390632
152	0xbda8ed9d	-0.08248446
153	0xbd5f0087	-0.054443862
154	0x3f2ff5f4	0.6873467
155	0x3e3cfb20	0.18455172
156	0xbdb7016c	-0.08935818
157	0xbd6b5c6a	-0.05746118
158	0xbd87ea65	-0.06636504
159	0x3dfdd082	0.12393285
160	0x3e5b80b5	0.21435817
161	0xbec3aa8c	-0.38216054
162	0x3e36ef13	0.17864637
163	0x3e6d4fe8	0.23175013
164	0xbf0b16ab	-0.54331464
165	0xbd1ad8a4	-0.03780426
166	0x3dc57ea1	0.09643293
167	0x3e79b095	0.24383767
168	0x3ef682f1	0.48146775
169	0xbe3a3055	-0.181825
170	0xbe6fed72	-0.23430422
171	0x3c299aa7	0.010351813
172	0x3c27bd9c	0.0102380775
173	0xbc81f4a0	-0.015863717
174	0xbc3049ff	-0.01075983
175	0xbd322c71	-0.043499414
176	0xbd7e9626	-0.06215491
177	0xbdb72b3e	-0.08943795
178	0xbb876a18	-0.0041325204
179	0x3de66435	0.11249582
180	0xbd8b1dc9	-0.067927904
181	0xbe040327	-0.12891828
182	0x3d08d9d4	0.033410862
183	0x3e4fc1e4	0.20288807
184	0x3e22e4aa	0.15907541
185	0x3de759d1	0.11296428
186	0xbb95ec7d	-0.0045753107
187	0xbe407c93	-0.18797521
188	0xbe8e04d5	-0.27738062
189	0x3e032e01	0.12810518
190	0xbca13082	-0.01967645
191	0xbd8a2456	-0.06745212
192	0xbe2248ff	-0.15848158
193	0xbdafa334	-0.085760504
194	0xbe22ef56	-0.15911612
195	0xbe54c9fe	-0.20780179
196	0x3cec59e8	0.028851464
197	0xbd248d18	-0.04017362
198	0x3da2d4b8	0.07950729
199	0x3e07badf	0.1325488
200	0x3d742333	0.05960388
201	0xbeabbd92	-0.33543068
202	0x3d302fd6	0.04301437
203	0x3dac1d1e	0.08403991
204	0x3dc4fea6	0.09618883
205	0xbcfb6618	-0.03068833
206	0xbb4107ee	-0.002945419
207	0xbc473ac5	-0.012160008
208	0xbe06e060	-0.1317153
209	0x3da139ad	0.07872329
210	0xbe64356c	-0.22286004
211	0x3dcd4edb	0.10024806
212	0xbe6c6212	-0.23084286
213	0xbe4190ba	-0.18902865
214	0x3cd4acf5	0.025961379
215	0xbd0b64a3	-0.03403152
216	0xbbd420b5	-0.0064736255
217	0x3e1c0429	0.15235962
218	0x3da30231	0.07959402
219	0x3c9db14b	0.019249579
220	0x3db8d4d0	0.09024966
221	0xbd86d260	-0.065830946
222	0xbbc69d85	-0.0060612583
223	0xbed11c7f	-0.40842053
224	0xbd804c64	-0.0626457
225	0xbcc49873	-0.023998475
226	0x3d0b07b3	0.03394289
227	0x3dd87da5	0.1057084
228	0x3dfac784	0.12245086
229	0x3e402c4e	0.18766901
230	0xbeba4f85	-0.36388794
231	0xbeb5620b	-0.35426363
232	0xbe38bb08	-0.18040097
233	0x3ef4affc	0.47790515
234	0x3e26293b	0.16226666
235	0x3dfa17b1	0.1221155
236	0xbd75695c	-0.05991493
237	0x3deaa038	0.114563406
238	0xbdee7a6a	-0.116444424
239	0xbdb9337a	-0.090430215
240	0xbdf0a17d	-0.117495514
241	0xbde9d06c	-0.114167064
242	0x3d041798	0.032249063
243	0xbd913bd5	-0.0709149
244	0x3dcf3e04	0.101192504
245	0xbd976653	-0.07392564
246	0x3e2563a5	0.16151293
247	0x3d112605	0.03543665
248	0x3e006d51	0.12541701
249	0x3e2e7d98	0.17040098
250	0x3cc88b3e	0.024480458
251	0xbd07e6c6	-0.033179067
252	0x3d6bf974	0.057610944
253	0x3bca5389	0.006174509
254	0x3c9dcd88	0.019263044
255	0x3ddc6f98	0.10763472

gru.weight_hh_l0 f4 [192, 64]
0	0x3dfc204b	0.12310847
1	0x3d397efb	0.045287114
2	0x3d06c762	0.03290499
3	0x3cf66fd7	0.030082626
4	0xbdaecb30	-0.08534849
5	0xbbb004b5	-0.005371655
6	0x3e3ebc45	0.18626507
7	0x3d895832	0.06706275
8	0xbd8dbd92	-0.06920923
9	0x3e39c686	0.18142137
10	0x3e3ee38b	0.18641488
11	0x3b2f4fcb	0.0026750441
12	0x3db43b2e	0.0880035
13	0xbd57ac27	-0.05265441
14	0xbd816bc1	-0.063193806
15	0x3c746295	0.014916082
16	0x3d5e2eee	0.054243974
17	0xbd625c49	-0.05526379
18	0x3df6d6ca	0.120526865
19	0x3c8f97ca	0.017528433
20	0x3dd7edfb	0.10543438
21	0x3d32b9bc	0.04363416
22	0xbdf7b542	-0.12095119
23	0x3e160f57	0.14654289
24	0x3e11321f	0.14179276
25	0xbdbb0e72	-0.091336146
26	0x3d5c5079	0.053787682
27	0x3dd63656	0.104595825
28	0x3dfe30a9	0.12411625
29	0xbdc7f0e8	-0.09762746
30	0xbca42659	-0.020037817
31	0xbdf61b72	-0.120169535
32	0xbdda2fd0	-0.10653651
33	0xbd8580cf	-0.06518709
34	0x3d309636	0.043112002
35	0xbda29a40	-0.07939577
36	0xbd80ff78	-0.06298727
37	0x3d214689	0.03937391
38	0x3c9458ca	0.018108744
39	0xbd8cc824	-0.06874111
40	0xbe36cba4	-0.1785112
41	0xbdbae28e	-0.09125243
42	0xbc51c713	-0.012803811
43	0x3d13937d	0.036029328
44	0xbd137d0b	-0.036007922
45	0x3e4bafec	0.19891328
46	0xbd21bb40	-0.039485216
47	0xbc34c245	-0.011032646
48	0x3d5beefb	0.053694706
49	0x3c6f12e7	0.014591909
50	0xbd28ddd2	-0.04122717
51	0x3e1ac62e	0.15114662
52	0xbceaef1a	-0.028678466
53	0x3e093b70	0.1340158
54	0xbc9d5bb6	-0.01920877
55	0x3d1216ed	0.035666395
56	0xbd9d0815	-0.07667557
57	0xbd0664e0	-0.032811046
58	0x3e2c0b6e	0.16801235
59	0xbe24850a	-0.16066375
60	0x3d11f6e5	0.035635848
61	0x3e029f7a	0.12756148
62	0x3d9ec32b	0.07752069
63	0x3c62d4fd	0.013844726
64	0x3e15da62	0.14634088
65	0x3e619811	0.22030665
66	0xbd6ecea6	-0.058302544
67	0x3cb06879	0.021534191
68	0x3d9fbe45	0.07799963
69	0xbd3aeac5	-0.04563405
70	0x3d71fea9	0.059080753
71	0x3df0d970	0.11760223
72	0xbd754ed2	-0.059889622
73	0x3cf61793	0.030040538
74	0x3dd6a564	0.104807645
75	0xbda36800	-0.07978821
76	0x3a2efb61	0.00066750316
77	0xbd8cc821	-0.06874109
78	0x3d103abf	0.035212275
79	0x3d3138a9	0.043266926
80	0xbc8f7ceb	-0.01751562
81	0x3cf66442	0.030077104
82	0x3d62c53c	0.05536388
83	0xbced5fb6	-0.028976303
84	0x3d9d9734	0.07694855
85	0x3d9ac95c	0.075579375
86	0xbd95d113	-0.07315268
87	0x3d077a8a	0.033075847
88	0x3da04174	0.07824984
89	0x3d5f3121	0.054490212
90	0xbd872fae	-0.06600891
91	0x3df3a21f	0.118961565
92	0x3caf2f65	0.021384904
93	0xbd70e9cb	-0.058816712
94	0xbe11b583	-0.14229397
95	0xbdd371dc	-0.10324451
96	0xbd8b664c	-0.06806621
97	0x3e0ccf64	0.13750988
98	0xbba8c6c0	-0.005150646
99	0xbd11a575	-0.035558183
100	0xbd9ea585	-0.07746414
101	0x3d7926c9	0.060828004
102	0xbd75b930	-0.05999106
103	0xbda6685d	-0.081253745
104	0xbcd78ce5	-0.026312301
105	0x3de17d22	0.11010195
106	0x3c76fd7a	0.015075082
107	0xbc8ff5dc	-0.01757329
108	0x3d295263	0.041338336
109	0x3de17a4a	0.11009653
110	0x3c8c0de5	0.01709647
111	0xbca75ee0	-0.020430982
112	0x3d162c46	0.036663316
113	0x3a59d969	0.00083102897
114	0x3d77d619	0.060506914
115	0xbc548705	-0.012971644
116	0x3d860ae6	0.065450475
117	0x3da5dbbf	0.08098554
118	0xba8c0e94	-0.0010685497
119	0xbdca08ef	-0.09864985
120	0xbd47bc61	-0.048763636
121	0xbcc50c5e	-0.024053749
122	0x3d54cc39	0.051952574
123	0xbe6aa282	-0.22913554
124	0x3c759624	0.01498941
125	0x3cb6618b	0.022263309
126	0x3cca32a5	0.024682352
127	0xbd670979	-0.05640552
128	0x3e619e5f	0.2203307
129	0x3e056907	0.13028346
130	0x3dc25e47	0.09490638
131	0x3d99de61	0.075131185
132	0xbd803eda	-0.06261988
133	0xbd8e4018	-0.06945819
134	0xbdba5af2	-0.09099378
135	0xbc42d16a	-0.0118907485
136	0xbe0abc4b	-0.1354839
137	0x3e9a5381	0.30141833
138	0x3e348eba	0.17632571
139	0xbdedc82a	-0.11610444
140	0xbda49a07	-0.08037191
141	0xbe13e293	-0.144419
142	0xbd9bd5af	-0.07609116
143	0x3d865707	0.06559568
144	0x3ea945e9	0.3306115
145	0xbdf2a0c6	-0.11847071
146	0xbb157472	-0.0022805003
147	0xbd75c557	-0.06000265
148	0x3cf0409b	0.029327681
149	0x3cc6aa5d	0.024251157
150	0x3d0c9c2b	0.03432862
151	0xbc993daf	-0.01870617
152	0x3c488677	0.01223909
153	0xbc96b605	-0.01839734
154	0x3c94d232	0.018166635
155	0x3dae7790	0.085188985
156	0xbd8db59e	-0.06919406
157	0x3dcd1c97	0.10015219
158	0xbdfae002	-0.12249757
159	0xbe502260	-0.20325613
160	0xbdc3c416	-0.09558885
161	0x3d0325b4	0.03201838
162	0xbca6e26e	-0.020371642
163	0xbdded4d5	-0.10880438
164	0xbd9c6169	-0.07635767
165	0x3ce686ce	0.028140452
166	0xbc3f7fe7	-0.011688209
167	0xbdac3f21	-0.084104784
168	0xbd9bdcb3	-0.076104544
169	0xbde9772b	-0.113996826
170	0x3e06f634	0.13179857
171	0x3c6bfc97	0.014403484
172	0x3c51dd06	0.012809044
173	0xbe3bdc85	-0.1834584
174	0x3c9e827c	0.01934933
175	0x3c3ffc0a	0.011717806
176	0xbd10d4a5	-0.035359044
177	0x3c898e77	0.016791565
178	0xbd2a9fa9	-0.04165617
179	0x3cc5366a	0.024073798
180	0x3d9ddf44	0.077086
181	0x3daae9b8	0.083453596
182	0xbdc1ef66	-0.0946949
183	0xbddf9f33	-0.10919037
184	0xbce29873	-0.027660584
185	0xbdf01fcb	-0.11724814
186	0xbd4a2544	-0.049351946
187	0xbc15afe8	-0.009136178
188	0x3defb10a	0.117036894
189	0x3e67d527	0.22639905
190	0xbda8f94f	-0.08250677
191	0xbcb9330d	-0.02260735
192	0xbe1862c0	-0.1488142
193	0x3d8e9019	0.06961078
194	0x3dc8d58c	0.09806356
195	0xbda65300	-0.081213
196	0xbd11733d	-0.03551029
197	0x3c68fc4b	0.014220308
198	0xbd2dc8e6	-0.04242792
199	0x3d919b11	0.07109655
200	0x3ba01cd0	0.004886247
201	0x3da33eec	0.07970986
202	0x3cd17b78	0.02557157
203	0x3d0e462d	0.034734894
204	0xbd7b065d	-0.061285365
205	0xbd8e2358	-0.06940335
206	0xbddca8e6	-0.10774402
207	0x3d8cdd30	0.06878126
208	0x3eb3d273	0.35121498
209	0x3dd80171	0.1054715
210	0xbd69f629	-0.057119522
211	0xbcea4fff	-0.028602598
212	0xbbc9dc80	-0.006160319
213	0x3d6ce48e	0.057835154
214	0x3d03a636	0.032140933
215	0xbc5c4494	-0.013444085
216	0x3db620fa	0.088930085
217	0xbd3c06b8	-0.045904845
218	0xbe3f25d3	-0.18666773
219	0xbc0f8333	-0.008759308
220	0x3e181342	0.14851096
221	0xbd18eacf	-0.037333306
222	0xbd4c3ac8	-0.049860746
223	0xbc66018f	-0.014038458
224	0xbcf7c157	-0.030243559
225	0xbe16eef8	-0.14739597
226	0x393d4a32	0.00018052084
227	0x3bf047f3	0.0073327958
228	0x3e07eb15	0.1327327
229	0x3d1e947c	0.038715824
230	0x3cb11159	0.021614717
231	0xbe3bf15a	-0.18353787
232	0x3c4f3098	0.012645863
233	0xbe360964	-0.1777702
234	0x3d924b4d	0.07143269
235	0x3bc8bbe1	0.0061259125
236	0xbdf06227	-0.11737471
237	0xbe01e81c	-0.12686199
238	0x3c3917bf	0.011297165
239	0x3b65f604	0.0035089264
240	0xbd1e4a6d	-0.038645197
241	0x3ce86c49	0.028371947
242	0xbe44716d	-0.19183894
243	0xbd455d51	-0.048184697
244	0x3c15b726	0.009137904
245	0x3c9cf1dd	0.019158298
246	0xbe64acbf	-0.22331522
247	0x3d97d95e	0.074145064
248	0xbcbed7da	-0.023296285
249	0x3e2a70ef	0.16644643
250	0x3e4ada4c	0.19809836
251	0x3df94d3e	0.12172936
252	0x3d588c80	0.052868366
253	0x3e7cff64	0.24706799
254	0xbd092c13	-0.033489298
255	0xbcf6ea09	-0.030140894

gru.bias_ih_l0 f4 [192]
0	0x3ebaa01d	0.36450282
1	0x3e6f789a	0.2338585
2	0x3f447a46	0.76749074
3	0x3e4fbe17	0.20287357
4	0x3eb34fa2	0.35021693
5	0x3ef489c1	0.47761348
6	0x3f14ef79	0.58177906
7	0x3e1f4a62	0.15555719
8	0x3e4783ae	0.19483826
9	0x3e201dee	0.15636417
10	0x3e0f8942	0.14017203
11	0x3f273a83	0.65323657
12	0x3f1d1959	0.613668
13	0x3ec279a2	0.37983423
14	0x3f0281b5	0.5097917
15	0x3e8dcad2	0.27693802
16	0xbc8a2386	-0.016862642
17	0x3e8ac8e9	0.27106407
18	0x3dab6505	0.08368877
19	0x3ef86234	0.48512423
20	0x3e4b80a4	0.19873291
21	0x3e107248	0.14106095
22	0x3e58c83f	0.21170138
23	0xbcfbb380	-0.03072524
24	0x3ef1a551	0.4719644
25	0x3ee8fff6	0.45507783
26	0x3dca8deb	0.0989035
27	0x3e68a079	0.22717465
28	0x3ebbab93	0.36654338
29	0x3e3d02cb	0.18458097
30	0x3e70a6db	0.2350115
31	0x3e571c7f	0.21006964
32	0x3e892a60	0.26790142
33	0x3e976447	0.29568693
34	0x3ecbdc6e	0.39816612
35	0x3e2c0e2d	0.16802283
36	0x3ed986c8	0.42485642
37	0x3e543cf2	0.20726374
38	0x3d0b9baa	0.034084
39	0x3e973432	0.2953201
40	0x3eac182b	0.3361219
41	0x3ebc76fd	0.3680953
42	0x3f3137fb	0.69226044
43	0x3f02c9a7	0.5108895
44	0x3eb22321	0.34792426
45	0x3dbd7ad7	0.092519455
46	0x3e08a0fa	0.13342658
47	0x3e098b39	0.13432015
48	0x3e548a27	0.20755826
49	0x3d2aa39f	0.041659947
50	0x3eb4ca12	0.35310417
51	0x3e07a8ff	0.1324806
52	0x3ec15576	0.37760514
53	0x3e57771c	0.2104153
54	0x3e2ad85c	0.16684097
55	0x3e580d9d	0.21098943
56	0x3ec88cc4	0.39169896
57	0x3f091977	0.5355448
58	0x3e8cc692	0.27495247
59	0x3e42d1e1	0.19025375
60	0x3c463a5f	0.012098878
61	0x3ec4e00c	0.38452184
62	0x3f02e26e	0.51126754
63	0x3e825d0e	0.2546162
64	0xbcacc6ef	-0.021090953
65	0x3ee1104e	0.43957752
66	0xbd505b36	-0.050868236
67	0xbe85ed98	-0.26157832
68	0xbe79f071	-0.24408127
69	0xbdcb7317	-0.09934061
70	0xbd435ebf	-0.04769778
71	0x3d32dbf5	0.0436668
72	0x3d51b8e4	0.051201716
73	0x3e8af49e	0.27139753
74	0x3e2b4c12	0.16728237
75	0x3ece0066	0.4023468
76	0xbd85670d	-0.06513796
77	0x3f25e696	0.6480497
78	0xbe155008	-0.14581311
79	0x3e8cad15	0.274758
80	0xbe4dc74c	-0.20095557
81	0xbd63ea31	-0.055643264
82	0xbd35f01c	-0.04441844
83	0xbea05710	-0.31316423
84	0x3e26da4a	0.16294208
85	0x3dbedf7e	0.093199715
86	0x3dc060a1	0.093934305
87	0xbe3af428	-0.182572
88	0x3e1d74ea	0.1537663
89	0xbdc3d109	-0.09561355
90	0xbe0a21d5	-0.13489468
91	0x3e1154db	0.14192526
92	0xbe683b91	-0.22678973
93	0xbdebb2a7	-0.115086846
94	0xbdf1f332	-0.11813964
95	0x3f0729c0	0.5279808
96	0x3ee63364	0.44961083
97	0xbe28d416	-0.16487154
98	0xbe1370eb	-0.14398544
99	0x3e8b778c	0.27239645
100	0x3eebed9d	0.46079722
101	0x3d283313	0.041064333
102	0xbecdecb0	-0.4021964
103	0x3e3bc4c5	0.1833678
104	0x3cb8b448	0.022546902
105	0xbe28119b	-0.16412966
106	0xbe018867	-0.1264969
107	0x3dbd405f	0.092407934
108	0xbeb0237a	-0.34402066
109	0x3e9e20ad	0.30884305
110	0xbdeea47f	-0.11652469
111	0x3eeaaa3b	0.45833
112	0x3e5ed8e5	0.21762426
113	0x3d0ae9df	0.033914443
114	0xbe9b7eb5	-0.30370107
115	0xbc5f0fac	-0.013614576
116	0xbe9d81c6	-0.30763072
117	0x3eb0cd07	0.34531423
118	0xbd9a4d30	-0.075342536
119	0x3d5b4b99	0.053538892
120	0x3e23e481	0.16005136
121	0x3ea1961a	0.3155983
122	0xbe98c5b9	-0.2983835
123	0x3d986cf3	0.074426554
124	0xbf03e5a2	-0.51522267
125	0x3f085fe0	0.53271294
126	0x3dad6cb4	0.08467999
127	0x3d9c5e18	0.076351345
128	0xbdf79d59	-0.120905586
129	0x3f37f620	0.7185993
130	0x3efb90ec	0.49134004
131	0x3e0db619	0.13838996
132	0xbec56fc6	-0.3856184
133	0xbec6ff85	-0.3886682
134	0x3f79f022	0.9763204
135	0x3eee2e75	0.4651982
136	0xbd510001	-0.051025394
137	0x3f36382f	0.7117948
138	0x3f38a441	0.7212563
139	0xbf1db8ac	-0.6160991
140	0x3f428904	0.7599032
141	0xbf8684b7	-1.0509251
142	0xbeee14a9	-0.46500137
143	0x3f21faf9	0.6327358
144	0x3f44aeb6	0.7682909
145	0x3ea4baf2	0.32173878
146	0x3ed35976	0.4127919
147	0x3e8c22af	0.2737021
148	0x3f0f38a3	0.55945796
149	0x3ed8b985	0.4232904
150	0xbeead055	-0.4586207
151	0x3ed2be92	0.4116102
152	0x3f6fa245	0.9360698
153	0xbf2c7291	-0.67362314
154	0xbeb08d2f	-0.34482715
155	0x3efc45e7	0.4927208
156	0x3f1a352a	0.6023737
157	0xbf1d9c42	-0.61566556
158	0x3e5ad1ad	0.21369047
159	0xbf3f6d9c	-0.74776626
160	0x3db90722	0.090345636
161	0xbe8fa3ab	-0.28054556
162	0x3e928941	0.2862034
163	0xbe8bd3b4	-0.27309954
164	0xbf2fab83	-0.6862108
165	0x3f2cb185	0.67458373
166	0xbe50a055	-0.20373662
167	0xbeb7b51f	-0.35880372
168	0xbf2560ee	-0.6460103
169	0xbde63535	-0.11240617
170	0x3f40adcd	0.752652
171	0x3e2df8fc	0.16989511
172	0xbecacdc6	-0.39610118
173	0x3effb4f4	0.49942744
174	0xbefbd1e2	-0.49183565
175	0xbe4a2e93	-0.19744329
176	0x3ee8cbfd	0.4546813
177	0xbd65b88e	-0.05608421
178	0xbe821411	-0.25405934
179	0x3e75271d	0.23940702
180	0xbdbe189d	-0.09282038
181	0x3f2eadd7	0.6823401
182	0x3d129677	0.035788026
183	0xbe610eb2	-0.21978262
184	0xbf1fb789	-0.6238943
185	0x3f243177	0.6413798
186	0x3ef1bce2	0.4721442
187	0xbf544f46	-0.8293346
188	0x3d2bb357	0.04191908
189	0x3fa7f835	1.3122622
190	0xbe87b822	-0.2650767
191	0xbe572749	-0.2101108

gru.bias_hh_l0 f4 [192]
0	0x3eba8ffe	0.36437982
1	0x3e6f9ada	0.23398915
2	0x3f430333	0.76176757
3	0x3e5037a1	0.2033372
4	0x3eb29b7c	0.3488425
5	0x3ef65378	0.48110557
6	0x3f138587	0.5762562
7	0x3e1f478b	0.15554635
8	0x3e478424	0.19484001
9	0x3e23d2ff	0.15998457
10	0x3e0f8291	0.14014651
11	0x3f21f111	0.63258463
12	0x3f20a059	0.6274467
13	0x3ec414de	0.3829717
14	0x3f028dff	0.5099792
15	0x3e8a88a2	0.27057368
16	0xbc5f0aba	-0.013613397
17	0x3e8a82d6	0.27052945
18	0x3dab7a6d	0.0837296
19	0x3ef93290	0.4867139
20	0x3e4bf940	0.199193
21	0x3e106c57	0.14103828
22	0x3e58c755	0.21169789
23	0xbd027a55	-0.031854946
24	0x3eeff4e6	0.4686653
25	0x3ee87c67	0.4540741
26	0x3dc9142c	0.098183006
27	0x3e68a418	0.22718847
28	0x3ebb13ea	0.3653863
29	0x3e3cc613	0.18434934
30	0x3e738af6	0.23783478
31	0x3e573828	0.21017516
32	0x3e892a88	0.2679026
33	0x3e971960	0.29511547
34	0x3eca55e2	0.39518648
35	0x3e2c1024	0.16803032
36	0x3ed8f43e	0.42373842
37	0x3e54395a	0.20725003
38	0x3d0c7de2	0.03429974
39	0x3e9740f2	0.29541737
40	0x3eac9eed	0.33715
41	0x3ebdabbb	0.37045082
42	0x3f315976	0.6927713
43	0x3f02beeb	0.5107257
44	0x3eb39309	0.35073116
45	0x3dbbe904	0.091753036
46	0x3e08de58	0.13366067
47	0x3e0994e8	0.1343571
48	0x3e54b082	0.20770457
49	0x3d2aa5d9	0.04166207
50	0x3eb4dde6	0.35325545
51	0x3e07a5ef	0.13246892
52	0x3ec15416	0.37759465
53	0x3e577759	0.21041621
54	0x3e2ad820	0.16684008
55	0x3e580ff9	0.21099843
56	0x3ec88198	0.39161372
57	0x3f061117	0.5236983
58	0x3e8c9ab7	0.27461788
59	0x3e428e1b	0.18999521
60	0x3c070639	0.00824123
61	0x3ee01e78	0.43773246
62	0x3f030e97	0.5119414
63	0x3e825c1f	0.25460908
64	0x3be56481	0.0070005064
65	0x3ee4d779	0.44695643
66	0xbd6c73c1	-0.05772758
67	0xbe88f759	-0.2675121
68	0xbe78a95f	-0.2428336
69	0xbdc72c7a	-0.0972528
70	0xbd3cea12	-0.046121664
71	0x3d445074	0.04792829
72	0x3d6e90ee	0.058243684
73	0x3e8926b5	0.26787344
74	0x3e2a04ee	0.16603443
75	0x3ec67d06	0.3876726
76	0xbd8922e0	-0.06696105
77	0x3f24adba	0.64327586
78	0xbe14010d	-0.14453526
79	0x3e8a627f	0.27028272
80	0xbe2a90c7	-0.1665679
81	0xbd6a6afb	-0.05723093
82	0xbd365493	-0.04451425
83	0xbea7da3f	-0.32783696
84	0x3e1f655d	0.15566011
85	0x3dcd2016	0.100158855
86	0x3dbaf63c	0.09128997
87	0xbe3ba784	-0.18325621
88	0x3e2eef5b	0.17083494
89	0xbdbc8cfe	-0.092065796
90	0xbe0edd47	-0.13951598
91	0x3e0c6292	0.13709477
92	0xbe714390	-0.2356093
93	0xbdc93498	-0.098244846
94	0xbdf2a761	-0.11848331
95	0x3f06e2a1	0.5268956
96	0x3ed77ad7	0.42085907
97	0xbe25d72c	-0.16195363
98	0xbe0cdf09	-0.13756956
99	0x3e8ebb69	0.27877358
100	0x3ee990b0	0.456182
101	0x3d298130	0.04138297
102	0xbece6320	-0.4031
103	0x3e310cf5	0.17290099
104	0x3cb9bf92	0.022674356
105	0xbe269cf5	-0.16270812
106	0xbe144b33	-0.14481811
107	0x3dbcc22b	0.09216722
108	0xbeb3179b	-0.34978947
109	0x3eb54066	0.35400695
110	0xbded56e2	-0.11588837
111	0x3ee81541	0.45328715
112	0x3e5c3614	0.21505004
113	0x3cd50877	0.026005013
114	0xbe9f0f04	-0.31066144
115	0xbc93cb3e	-0.01804125
116	0xbe9efa06	-0.31050128
117	0x3eb02dd1	0.34409955
118	0xbd949404	-0.07254794
119	0x3d56d17f	0.052445885
120	0x3e24f5e7	0.1610943
121	0x3ea3d3c9	0.31997517
122	0xbe9bc720	-0.30425358
123	0x3d8becc8	0.06832272
124	0xbefb14de	-0.49039358
125	0x3f080ad1	0.53141505
126	0x3dcf5332	0.1012329
127	0x3d9abd77	0.07555669
128	0x3c2ed3e2	0.010670634
129	0x3f31c2bb	0.6943776
130	0x3ec9396a	0.39301616
131	0xbc1a0415	-0.009400387
132	0xbd47b827	-0.048759606
133	0xbe13cd42	-0.14433768
134	0x3e986ea7	0.2977192
135	0x3f0070eb	0.501723
136	0x3d147ba7	0.036250737
137	0x3f3373e6	0.7009872
138	0x3f694136	0.9111513
139	0x3e902630	0.28154135
140	0xbec068d8	-0.3757999
141	0xbf89dbe1	-1.0770227
142	0xbe56633a	-0.2093629
143	0x3d494e84	0.049147144
144	0x3d84ff53	0.06494012
145	0x38a658c2	7.932029e-05
146	0x3cb30f4f	0.021857886
147	0x3f330e2c	0.699435
148	0x3d5cf13e	0.053941004
149	0x3eb370a5	0.35046878
150	0xbedf7e27	-0.43650934
151	0xbe1b31cf	-0.15155719
152	0x3e94534f	0.2896981
153	0xbd93793e	-0.072008595
154	0xbe3f5051	-0.18682982
155	0x3efc742e	0.49307388
156	0x3f5bfb38	0.85930204
157	0xbef70859	-0.48248556
158	0xbdf6fe35	-0.12060205
159	0xbf6a3fbd	-0.91503507
160	0x3e885fd0	0.266356
161	0x3d8b78a0	0.06810117
162	0x3adf64b3	0.001704356
163	0xbdce0f9b	-0.1006157
164	0xbd81f7a4	-0.06346062
165	0xbd2cd350	-0.04219371
166	0x3e8c2bc3	0.27377138
167	0xbca37bf8	-0.019956574
168	0x3e02ec50	0.12785459
169	0xbdeb90d0	-0.1150223
170	0x3f379415	0.7171033
171	0x3d47851b	0.048710924
172	0xbea4f69b	-0.32219395
173	0xbd8d9a6b	-0.069142185
174	0x3d98047b	0.074227296
175	0x3d3d4a2c	0.046213314
176	0x3e2223da	0.15833989
177	0xbde1eaa7	-0.110310845
178	0xbe9e9dfa	-0.30979902
179	0x3eecbec6	0.462393
180	0x3e44cfd1	0.192199
181	0x3ef94e46	0.4869253
182	0x3dd3c91f	0.10341095
183	0xbc44a197	-0.012001417
184	0xbe7ceaae	-0.24698898
185	0x3cf7b3ed	0.030237162
186	0x3f1bb0c4	0.608166
187	0xbe01ab82	-0.12663081
188	0xbe12ee0d	-0.14348622
189	0x3f97418b	1.1816877
190	0xbdef2c15	-0.1167833
191	0x3b84fb5e	0.0040582856

gru.weight_ih_l1 f4 [192, 64]
0	0x3d57a604	0.05264856
1	0xbd1e9b11	-0.0387221
2	0x3d18d8f8	0.037316293
3	0x3d04c192	0.032411166
4	0xbc3ac3d8	-0.011399232
5	0xbd386c59	-0.045025203
6	0x3e00b370	0.1256845
7	0x3e731d2b	0.23741595
8	0xbd1caf5d	-0.038253177
9	0x3d7414a7	0.059590008
10	0x3da8af6a	0.082365826
11	0xbdf4e720	-0.11958146
12	0x3c94095a	0.018070865
13	0xbe5b863a	-0.21437922
14	0x3c7b6ae9	0.015345314
15	0x3c2f19d9	0.010687315
16	0x3b457b75	0.00301334
17	0x3dda330e	0.10654269
18	0x3dc74da7	0.09731608
19	0x3d4ed01b	0.050491434
20	0x3ce210ff	0.027595995
21	0x3d0c7bd9	0.034297798
22	0xbd2da288	-0.04239133
23	0x3dd2a09d	0.10284541
24	0xbdd207c1	-0.10255385
25	0x3d10252e	0.035191707
26	0xbda72bb0	-0.081626296
27	0x3e4e59b5	0.20151408
28	0x3d7566d2	0.05991251
29	0xbe5ef860	-0.21774435
30	0xbcbc9259	-0.023019003
31	0xbdb827c8	-0.08991963
32	0x3e07456f	0.1321008
33	0x3cfa6b59	0.030568765
34	0x3be3e681	0.0069549684
35	0xbcde54fb	-0.027140131
36	0x3b9a959a	0.004717541
37	0x3d5ec6d5	0.05438884
38	0xbe41dd21	-0.1893201
39	0xbacbd31c	-0.0015550586
40	0xbdb9396f	-0.09044158
41	0x3d5153f6	0.051105462
42	0x3c9c399f	0.019070445
43	0x3bf5dbbb	0.0075030006
44	0xbc33749c	-0.010953095
45	0x3d9ae1e5	0.07562617
46	0x3db4d0ad	0.08828864
47	0x3bc3cfb7	0.0059756893
48	0x3a3ac106	0.00071240996
49	0x3dc8121b	0.09769078
50	0x3d1f5dbf	0.038907763
51	0x3d4a2a41	0.049356703
52	0x3c881173	0.016609883
53	0x3d8de8a8	0.06929141
54	0xbc1b5032	-0.009479569
55	0x3ae5c264	0.0017529246
56	0xbd30c1cd	-0.043153573
57	0x3c532187	0.0128864115
58	0x3d03415e	0.03204476
59	0xbdd8d5f8	-0.10587686
60	0x3d2f53fc	0.042804703
61	0x3e4559f3	0.19272594
62	0x3e02f34f	0.12788127
63	0xbdb1df1d	-0.086851336
64	0x3d0831f4	0.033250764
65	0xbc099346	-0.008396929
66	0xbddf4433	-0.1090168
67	0x3d73f42f	0.059559043
68	0xbd8ebba8	-0.06969386
69	0x3d46e3a9	0.048556957
70	0x3dbefad9	0.09325189
71	0x3dbabc42	0.091179386
72	0x3d09124c	0.033464715
73	0x3c6a58b6	0.014303377
74	0x3e0d2e1e	0.13787124
75	0xbe18ed73	-0.1493433
76	0xbd274b33	-0.0408432
77	0xbcf4a616	-0.029864352
78	0xbbb3e84f	-0.00549034
79	0x3e15dce3	0.14635043
80	0x3d19f686	0.03758862
81	0x3e222f20	0.1583829
82	0x3dd3f6ab	0.103497826
83	0xbd0725a4	-0.03299488
84	0x3e26560a	0.16243759
85	0x3e3b1d43	0.18272881
86	0xbca39c5d	-0.01997202
87	0x3ca89e23	0.020583218
88	0x3e0b06db	0.13576834
89	0x3d9f5828	0.07780486
90	0xbc91e299	-0.017808245
91	0x3e00d1aa	0.1257998
92	0x3d3650c9	0.044510636
93	0xbdf61593	-0.12015834
94	0xbd7b050e	-0.061284117
95	0xbd940f31	-0.0722946
96	0xbd567f66	-0.05236759
97	0x3d15ca90	0.03657013
98	0x3e046a0a	0.12931076
99	0xbdf1eb3f	-0.11812448
100	0xbe121e27	-0.14269315
101	0x3e772539	0.24135293
102	0xbdcf0775	-0.10108844
103	0xbdb9e83e	-0.090775
104	0xbdfb99cd	-0.122851945
105	0x3e0fe017	0.14050327
106	0xbcaefdb8	-0.021361217
107	0x3d001b39	0.03127596
108	0x3d273d3b	0.04082988
109	0x3da57a01	0.08079911
110	0x3c23278d	0.00995816
111	0xbda2e004	-0.07952884
112	0x3dde38e4	0.10850695
113	0xbcef4336	-0.029206853
114	0x3cf69bc4	0.030103572
115	0x3c1813fe	0.00928211
116	0x3d9793b8	0.07401222
117	0x3c8af9ca	0.016964812
118	0x3cd65976	0.026165705
119	0x3d47e8ab	0.048805874
120	0xbcffa130	-0.03120479
121	0xbd80d2ad	-0.06290183
122	0x3d6be8c6	0.057595037
123	0xbde1fc5b	-0.11034461
124	0x3d627b01	0.055293087
125	0x3b4e3cbe	0.003146931
126	0x3c9639b6	0.018338066
127	0xbdcfc2af	-0.10144555
128	0x3d0f3af9	0.03496835
129	0x3d005547	0.031331327
130	0x3cf4c25c	0.029877834
131	0xbe09813d	-0.13428207
132	0x3cb42d7d	0.021994347
133	0x3d8a23da	0.067451194
134	0x3d3c6b60	0.04600084
135	0x3dc47f97	0.09594648
136	0xbd26034b	-0.040530484
137	0x3dce73b8	0.10080665
138	0x3dbeb247	0.093113475
139	0xbd2f210a	-0.042756118
140	0x3c624797	0.013811014
141	0xbe2682e1	-0.16260864
142	0xbc852de3	-0.016257232
143	0x3d42bf5f	0.047545787
144	0x3e1d089d	0.15335317
145	0x3e0baf4f	0.13641094
146	0x3daca025	0.08428983
147	0xbc08e33e	-0.00835496
148	0x3ca64800	0.020298004
149	0x3d7409a6	0.059579514
150	0xba043d98	-0.00050445786
151	0xbbbb03ba	-0.0057072314
152	0x3e0a1966	0.13486251
153	0xbd252220	-0.040315747
154	0xbd101924	-0.035180226
155	0xbcf1d8b6	-0.029522281
156	0x3d6c7a8d	0.05773406
157	0xbd0f791c	-0.03502761
158	0xbd0f5bed	-0.034999777
159	0xbe387a47	-0.18015395
160	0xbc09238a	-0.00837029
161	0x3d3677c2	0.044547804
162	0xbc85c7c7	-0.016330613
163	0xbd1b90ad	-0.03797977
164	0xbd72c0e4	-0.059265986
165	0x3d8f44a0	0.06995511
166	0x3bc44ccc	0.0059906
167	0x3cb94ddf	0.02262014
168	0xbe14c999	-0.14530028
169	0x3d5b96de	0.053610675
170	0x3d6fab63	0.058513056
171	0xbd45d665	-0.048300166
172	0x3df28561	0.11841846
173	0x3cd9e46c	0.026598178
174	0x3c5c14d7	0.013432703
175	0xbb345026	-0.0027513593
176	0x3c9170f9	0.017754065
177	0xbd8f7eef	-0.070066325
178	0xbc6bcb7a	-0.014391774
179	0x3cc4ae38	0.024008855
180	0x3da1cc7a	0.07900329
181	0x3df1d11a	0.11807461
182	0x3a9179bd	0.0011098903
183	0x3d28a02e	0.041168384
184	0xbcdf7c75	-0.027281025
185	0xbc2f5295	-0.010700841
186	0xbca8dff4	-0.020614602
187	0xbdbd4393	-0.092414044
188	0xbd75ff8f	-0.060058173
189	0x3e0d9ed6	0.13830122
190	0x3d535b84	0.051600948
191	0x3cac38b3	0.02102313
192	0xbcf93981	-0.030422928
193	0x3bbfb055	0.005849878
194	0x3d875606	0.066082045
195	0xbd477fb3	-0.048705768
196	0x3da62510	0.08112538
197	0x3c0908eb	0.008363943
198	0x3df37ae2	0.118886724
199	0x3d7ec506	0.062199615
200	0xbcd5b8b0	-0.026089042
201	0x3d802cb4	0.062585264
202	0x3de53a43	0.11192753
203	0x39583e42	0.00020622558
204	0x3d505d6b	0.05087034
205	0xbdfd16e0	-0.12357879
206	0x3cf8790a	0.030331153
207	0x3d9337f4	0.071884066
208	0x3c8d84f6	0.017275315
209	0x3db69241	0.089146145
210	0x3d665cd7	0.056240883
211	0x3d572e56	0.052534424
212	0x3da032a0	0.07822156
213	0x3d461965	0.04836406
214	0xbd6b3daa	-0.057431854
215	0x3d003edc	0.031309947
216	0x3e01c1c6	0.12671575
217	0xbc62b798	-0.0138377175
218	0xbd999b7f	-0.07500362
219	0x3d92db06	0.07170682
220	0x3d83874a	0.06422289
221	0xbd37a702	-0.044837005
222	0x3dacd03e	0.084381565
223	0xbd9d2dae	-0.07674728
224	0xbd628db2	-0.055310912
225	0x3c2ef713	0.010679024
226	0xbb022c9f	-0.0019863022
227	0xbca2136d	-0.019784654
228	0xbd871ad6	-0.065969154
229	0x3d632751	0.055457417
230	0xbdb2a65f	-0.08723139
231	0xbe0af9f7	-0.13571917
232	0xbdf9a2dd	-0.12189267
233	0x3d72daac	0.059290573
234	0x3d0a07a7	0.033698704
235	0x3d8ec027	0.06970244
236	0x3bfc905e	0.0077076396
237	0x3d879b9b	0.06621476
238	0x3d36ff2d	0.04467695
239	0xbb9e6027	-0.0048332396
240	0x3d973c6c	0.073845714
241	0x3d1412d3	0.036150765
242	0x3d771615	0.060323793
243	0x3da0b667	0.078472905
244	0xbd6835ea	-0.05669204
245	0x3d215e1c	0.03939639
246	0x3ccc076b	0.02490588
247	0xbd76fe17	-0.060300913
248	0xbd86f5bf	-0.06589841
249	0xbd1f3da8	-0.03887716
250	0xb98dd030	-0.00027048727
251	0xbdba5900	-0.09099007
252	0x3d7d8026	0.06188979
253	0x3d9801ed	0.07422242
254	0x3d210583	0.039311897
255	0xbda0330f	-0.07822239

gru.weight_hh_l1 f4 [192, 64]
0	0x3b87f1a2	0.004148678
1	0xbc03ff2d	-0.008056444
2	0x3c697e88	0.014251359
3	0xbd42e986	-0.047585987
4	0xbd045640	-0.032308817
5	0xbb703aaf	-0.0036656072
6	0xbcfff180	-0.031243086
7	0xbd1b60fd	-0.037934292
8	0xbd607dba	-0.054807402
9	0xbc254874	-0.010088075
10	0x3d69036f	0.05688804
11	0x3cf1a702	0.02949858
12	0xbcf57815	-0.029964486
13	0x3bd71b94	0.006564567
14	0xbd3bb737	-0.045829024
15	0x3d9d97b0	0.07694948
16	0x3cb56c39	0.022146331
17	0x3d2b95fa	0.041891076
18	0x3d0a2860	0.03372991
19	0xbcd82500	-0.02638483
20	0x3c328b80	0.010897517
21	0xbce3c99c	-0.027806096
22	0x3953a201	0.00020182879
23	0xbdb65670	-0.089032054
24	0x3d0304db	0.031987052
25	0x3d5d400c	0.054016158
26	0xbcb92071	-0.022598477
27	0xbd17a083	-0.03701831
28	0xbcbbd56c	-0.022928916
29	0x3cc90012	0.024536166
30	0xbb6f362f	-0.0036500802
31	0x3c1d0451	0.009583549
32	0x3ce98b17	0.028508706
33	0x3d01f342	0.03172613
34	0xbd5f5d18	-0.05453214
35	0x3c9a49f6	0.018834095
36	0x3cc93abf	0.024564145
37	0xbcfc8cc8	-0.030828848
38	0x3d62f1db	0.055406433
39	0xbd2b9bfc	-0.041896805
40	0x3d05b060	0.032638907
41	0x3d04d536	0.032429896
42	0xbc8566e3	-0.016284412
43	0xbc208173	-0.009796488
44	0x3d10fd59	0.03539786
45	0x3cc52cd5	0.02406923
46	0x3c928bee	0.01788899
47	0xbca04650	-0.019564778
48	0x3d0a4d02	0.033764847
49	0xbd290eb4	-0.041273788
50	0xbcc30a73	-0.023808694
51	0xbc0c6e7e	-0.008571265
52	0xbc52adb4	-0.012858797
53	0x3c133d50	0.008986786
54	0x3c43f9bf	0.0119614
55	0xbc60786b	-0.013700585
56	0x3c0345b4	0.008012224
57	0xbcbe9104	-0.023262508
58	0xbc09047a	-0.008362884
59	0xbafc38a8	-0.0019242959
60	0x3d784112	0.06060893
61	0x3cb38cbf	0.021917699
62	0x3d84f45c	0.0649192
63	0x3d4e5d76	0.0503821
64	0xbcc60fcd	-0.024177456
65	0xbde24195	-0.11047665
66	0x3d79935a	0.06093154
67	0x3cd772dd	0.026299888
68	0x3d9835e9	0.074321575
69	0xbd52ef94	-0.05149801
70	0xbd7fbd0e	-0.062436156
71	0xbc8a1c35	-0.016859153
72	0x3d9ccedf	0.07656645
73	0x3d415678	0.047201604
74	0xbc01752e	-0.007901473
75	0xbd129bfc	-0.03579329
76	0xbdae90f3	-0.085237406
77	0xbd844a9a	-0.064595416
78	0xbd451fb5	-0.04812594
79	0xbc5719a6	-0.013128674
80	0xbd12032b	-0.035647552
81	0xbce21eb7	-0.027602537
82	0x3c0f017c	0.008728381
83	0x3d3c263c	0.0459349
84	0xbc2aa14d	-0.010414434
85	0xbd6097c2	-0.054832228
86	0x3d1c0a1c	0.03809558
87	0xbe0cfc9f	-0.13768242
88	0xbd4e5097	-0.050369825
89	0xbd1b6610	-0.03793913
90	0xbba0c87f	-0.0049067135
91	0xbd2d3dd8	-0.042295307
92	0x3d08cfc2	0.03340126
93	0xbc889c1c	-0.016676001
94	0x3c9b711c	0.018974833
95	0x3ccccdae	0.02500042
96	0x3d4052ce	0.04695397
97	0xbd9c1518	-0.07621211
98	0xbcd46b11	-0.02592996
99	0x3d4ccf37	0.050002303
100	0xbca63703	-0.020289904
101	0x3ccf007d	0.025268788
102	0xb9f9990f	-0.00047607018
103	0xbcadd856	-0.021221321
104	0xbc1e7068	-0.009670354
105	0xbcc02693	-0.023455894
106	0x3d97b5d0	0.07407725
107	0x3d156beb	0.03647987
108	0xbd2a10af	-0.041519817
109	0xbd998539	-0.07496113
110	0x3d2dfc57	0.04247698
111	0x3d9db45f	0.07700419
112	0xbd1c6a53	-0.038187336
113	0xbd81d028	-0.06338531
114	0x3cce4adc	0.02518218
115	0x3b0aa1f5	0.0021153663
116	0x3d594f65	0.053054232
117	0x3d68043f	0.056644674
118	0xbce0c030	-0.027435392
119	0x3d0fc809	0.035102878
120	0xbd8d2fe3	-0.06893899
121	0xbd6af5c3	-0.057363283
122	0x3d8393be	0.06424664
123	0xbe024b79	-0.12724103
124	0x3d7a6dd9	0.061139915
125	0x3d16f295	0.036852438
126	0x3cf8c3e4	0.030366845
127	0x3dc511c8	0.09622532
128	0xbcaf1017	-0.021369977
129	0xbcabbebb	-0.02096497
130	0x3dfa32fe	0.12216757
131	0xbd2851e2	-0.041093715
132	0xbb8ff6ce	-0.004393435
133	0x3c5820de	0.01319143
134	0xbd45c7db	-0.0482863
135	0xbc8e2020	-0.017349303
136	0xbd5da697	-0.05411395
137	0xbbac86f8	-0.005265113
138	0xbbee7951	-0.0072776456
139	0x3d71a362	0.058993705
140	0xbc61b7df	-0.013776748
141	0x3d08fa4a	0.03344182
142	0xbd3a98a6	-0.045555733
143	0x3d0ae9fb	0.033914547
144	0x3cfa3784	0.03054405
145	0x3cde2e3f	0.027121661
146	0x3d2af4c8	0.041737348
147	0xbd9d587c	-0.07682893
148	0x3d04981a	0.032371618
149	0xbca2a300	-0.019853115
150	0xbd1e7fd2	-0.038696118
151	0xbbab5728	-0.0052288957
152	0x3c2b1640	0.0104423165
153	0x3d1736cc	0.036917493
154	0xbd2890d5	-0.041153748
155	0xbd536a3d	-0.05161499
156	0x3ca48078	0.02008079
157	0x3d44310c	0.047898337
158	0xbca02e6a	-0.019553382
159	0xbc170248	-0.0092168525
160	0xbd32241b	-0.043491464
161	0x3d36fdf1	0.04467577
162	0xbd3cce6b	-0.046095293
163	0xbc4cc334	-0.012497712
164	0x3c252f24	0.01008204
165	0xbd35ee50	-0.044416726
166	0x3d350b8d	0.04420047
167	0xbd3fdb7c	-0.046840176
168	0x3d1c1278	0.03810355
169	0xbc15c563	-0.009141299
170	0x3cac0b94	0.021001615
171	0xbd28e5b2	-0.04123468
172	0xbd3fcba2	-0.04682506
173	0xbcb1e907	-0.021717561
174	0x3cde32c2	0.027123813
175	0xbcebaf47	-0.028770102
176	0xbc7495c8	-0.014928289
177	0xbcc87732	-0.0244709
178	0xbb982232	-0.0046427483
179	0xbcf5aa34	-0.029988386
180	0x3c019fec	0.0079116635
181	0x3b8d271c	0.0043076407
182	0x3c50e86b	0.012750725
183	0xbc468561	-0.012116761
184	0x3d198980	0.037484646
185	0xbc829f88	-0.015945211
186	0x3c7db603	0.0154852895
187	0xbc123ed3	-0.008926111
188	0x3ca02fc4	0.019554026
189	0x3d142c62	0.03617514
190	0xbcb76129	-0.022385197
191	0x3d4ef0b8	0.050522536
192	0xbc3d4ea9	-0.011554399
193	0xbd879767	-0.066206746
194	0x3d812567	0.06305962
195	0x3dc7263a	0.09724088
196	0x3d045806	0.03231051
197	0xbd836151	-0.06415046
198	0xbd91b2b5	-0.07114164
199	0x3d94c8ed	0.07264886
200	0x3d575c88	0.05257848
201	0x3d83a6c9	0.06428296
202	0xbd064d74	-0.03278871
203	0xbcf6ef34	-0.030143358
204	0xbde7a0ac	-0.113099426
205	0xbd4a6c54	-0.049419716
206	0xbd9c09e2	-0.076190725
207	0xbd6e413e	-0.05816769
208	0xbd85cfc3	-0.06533768
209	0xbd40efbf	-0.04710364
210	0xbd4e56e9	-0.050375853
211	0x3cfc39c8	0.030789271
212	0xbc64dd4e	-0.013968779
213	0xbda6aad4	-0.08138052
214	0x3d2cb40d	0.042163897
215	0xbda1e5b1	-0.07905138
216	0xbcefa315	-0.029252568
217	0xbd1a5cce	-0.03768616
218	0x3d5416d1	0.051779572
219	0xbda57a33	-0.08079948
220	0x3d6deabb	0.058085185
221	0xbd84f47e	-0.06491946
222	0x3d8a8bf7	0.067649774
223	0x3d9be30e	0.076116666
224	0x3da4b379	0.08042044
225	0xbd698b10	-0.057017386
226	0x3d1c6d30	0.038190067
227	0x3c406d80	0.011744857
228	0xbc5e87e5	-0.0135822045
229	0x3d3fc36a	0.04681722
230	0xbd3452a3	-0.04402412
231	0x3c8797bd	0.016551847
232	0xbd481b59	-0.048854206
233	0xbd7be40c	-0.06149678
234	0x3d79d278	0.060991734
235	0x3d5ffcd2	0.054684468
236	0xbd3457e8	-0.044029146
237	0xbd1d4bc9	-0.038402352
238	0x3d673cc9	0.056454454
239	0x3db1c313	0.086797856
240	0xbd46d1c8	-0.048539907
241	0xbd710fc2	-0.05885292
242	0x3d889cf6	0.06670563
243	0x3ce31f08	0.027724758
244	0x3d24e89c	0.040260896
245	0x3d9e4dcc	0.07729682
246	0xbd6b6d17	-0.057477083
247	0x3ccfbfe9	0.025360065
248	0xbdb172f9	-0.086645074
249	0xbd4996c2	-0.04921604
250	0x3da83cb4	0.08214703
251	0xbd4ade35	-0.04952832
252	0x3dbd6f1c	0.09249708
253	0x3c4163a6	0.011803543
254	0x3d975701	0.073896416
255	0x3d592296	0.0530115

gru.bias_ih_l1 f4 [192]
0	0x3dae46f1	0.08509625
1	0x3db5ce03	0.08877184
2	0x3e35e637	0.17763601
3	0x3d30818d	0.0430923
4	0x3e4fa600	0.20278168
5	0x3e58da13	0.21176939
6	0x3e5779b8	0.21042526
7	0xbf1d6f06	-0.61497533
8	0x3d0f1866	0.034935378
9	0x3d9a5421	0.075355776
10	0xbd19caa3	-0.037546765
11	0x3dde8bf5	0.108665384
12	0x3eaba56f	0.33524653
13	0x3a3cb0ce	0.0007197977
14	0x3e1e0416	0.15431246
15	0x3dfc1fb8	0.12310737
16	0x3eced5e7	0.4039757
17	0x3d987076	0.07443325
18	0x3e0cff87	0.13769351
19	0x3e933312	0.287499
20	0x3e1473bb	0.14497273
21	0x3d0a21f2	0.03372378
22	0x3da8d51a	0.08243771
23	0xbcdd8498	-0.027040765
24	0x3d2198d9	0.039452408
25	0x3de8d274	0.11368266
26	0x3df51df8	0.11968607
27	0x3d9c0da8	0.07619792
28	0x3ddeaf5a	0.108732894
29	0x3daea510	0.08527577
30	0x3e099b12	0.13438061
31	0x3f103e5a	0.5634514
32	0xbcf17da6	-0.02947886
33	0x3d31e735	0.043433387
34	0xbc934a88	-0.017979875
35	0x3d040efc	0.032240853
36	0xbe29aa5a	-0.1656889
37	0xbcdfdccd	-0.027326966
38	0xbcd82d34	-0.026388742
39	0x3d1cdb0a	0.03829483
40	0x3d8ed57d	0.069743134
41	0x3eeb74ca	0.4598754
42	0x3e29030e	0.16505072
43	0x3cffa738	0.031207666
44	0x3e2955b7	0.16536604
45	0x3e89aae9	0.26888207
46	0x3e3adb63	0.18247752
47	0x3ce9c8d5	0.028538147
48	0x3e0e9cad	0.13926955
49	0x3e0daca6	0.13835391
50	0x3d985862	0.07438733
51	0x3cbc32af	0.022973387
52	0x3e22f9d3	0.15915613
53	0x3e4717c8	0.19442666
54	0x3e1888cf	0.14895938
55	0x3dc19d93	0.09453883
56	0xbc040347	-0.008057422
57	0x3ebbee82	0.36705405
58	0x3e8145eb	0.25248656
59	0x3d5fdd3b	0.05465434
60	0x3d155c30	0.03646487
61	0x3d96a9ab	0.0735658
62	0xbd3033c4	-0.043018118
63	0x3e73a06b	0.23791663
64	0x3f006aaa	0.50162756
65	0x3e3ba02d	0.18322821
66	0x3eaa359d	0.3324403
67	0x3f6ec40c	0.93267894
68	0x3f2d8408	0.6777959
69	0x3ed8573e	0.4225406
70	0x3e99aa82	0.300129
71	0x3f6cdb12	0.92521775
72	0x3f8bf9b8	1.0935583
73	0x3f099109	0.5373693
74	0x3fa68f03	1.3012394
75	0x3fa493b8	1.285758
76	0x3f9e079f	1.2346076
77	0x3f0eb207	0.557404
78	0x3e99871b	0.2998589
79	0x3f7c9663	0.9866697
80	0x3fded4af	1.7408656
81	0x3f8479dd	1.034969
82	0x3f57d0b0	0.84302807
83	0x3f48ee76	0.7848886
84	0x3f011e4f	0.5043687
85	0xbca4b422	-0.020105425
86	0x3f5a9ee9	0.8539873
87	0x3f118ce3	0.568556
88	0x3f6c5497	0.92316574
89	0x3f19ea35	0.60122997
90	0x3f668443	0.90045565
91	0x3e5ffeeb	0.21874587
92	0x3ed1dfd8	0.40991092
93	0x3f38b10e	0.72145164
94	0x3eee0fd6	0.46496457
95	0x3fa3d6af	1.2799891
96	0x3ee2c625	0.44291797
97	0x3f6e97c5	0.9320033
98	0x3fa968ca	1.3235104
99	0x3e0e82af	0.1391704
100	0x3ead3ebf	0.33836934
101	0x3fb3253c	1.3995738
102	0x3fa58d9b	1.293384
103	0x3faa78fe	1.3318174
104	0x3f3a01e3	0.7265913
105	0x3f0a09b1	0.5392104
106	0x3ee7c5c6	0.45268077
107	0x3f0d14a7	0.5510964
108	0x3eb4f884	0.35345852
109	0x3ec96a9e	0.39339155
110	0x3ef1843e	0.47171205
111	0x3f4e957d	0.8069685
112	0x3eb5a180	0.35474777
113	0x3ee0926a	0.43861705
114	0x3f268685	0.6504901
115	0x3edde434	0.43338168
116	0x3ebc3c92	0.3676496
117	0x3f71b3a9	0.94414765
118	0x3f520933	0.82045287
119	0x3ec6df8c	0.38842428
120	0x3f27e104	0.6557772
121	0x3f8054ac	1.002584
122	0x3f47a60e	0.77987754
123	0x3eaf7470	0.34268522
124	0x3dbd04e5	0.09229449
125	0x3eb4c460	0.35306072
126	0x3eed3f33	0.4633728
127	0x3e994819	0.2993782
128	0xbde5913b	-0.11209341
129	0xbd869d99	-0.06573028
130	0xbd2bc200	-0.04193306
131	0xbd71d8d7	-0.059044685
132	0xbd321072	-0.043472715
133	0xbd858ef6	-0.06521408
134	0x3c9741e0	0.018464029
135	0xbf02db3a	-0.51115763
136	0x3bcdda0c	0.0062820967
137	0xbc0b35ad	-0.008496684
138	0x3dd187b6	0.10230963
139	0x3c80462c	0.01565846
140	0x3e8f10c1	0.2794247
141	0x3db0c0b7	0.086305074
142	0x3e84f434	0.25967562
143	0x3c4bd897	0.012441776
144	0x3e539cdc	0.20665306
145	0x3dd9015e	0.10595964
146	0xbd35651d	-0.044285882
147	0xbbfdf632	-0.007750296
148	0xbe524a90	-0.20536256
149	0x3e1d7de9	0.15380062
150	0x380ea8e9	3.4012748e-05
151	0x3e4b6ad9	0.19864978
152	0x3dd99648	0.10624367
153	0x3e1c004b	0.15234487
154	0xbdd16a60	-0.102253675
155	0x3c44b00a	0.012004862
156	0xbc78f474	-0.015195001
157	0x3e04397a	0.1291255
158	0x3d02f6fb	0.03197382
159	0xbd975ceb	-0.073907696
160	0xbea89d80	-0.32932663
161	0x3e323560	0.17403173
162	0xbdc62b86	-0.0967627
163	0xbd926ad8	-0.07149285
164	0xbe05554a	-0.13020816
165	0xbdbf23fd	-0.09333036
166	0x3dedb0be	0.116059765
167	0xbdca0933	-0.09865036
168	0xbc5b80ec	-0.013397437
169	0x3bba6280	0.0056880116
170	0x3d7887db	0.060676437
171	0xbe1c11ae	-0.1524112
172	0xbc5b4cbe	-0.013384996
173	0xbcf33289	-0.029687183
174	0x3d77cb29	0.060496483
175	0xbd145ef8	-0.03622338
176	0x3dacd158	0.08438367
177	0x3eb624ba	0.35574895
178	0xbd121c56	-0.035671555
179	0x3db170b6	0.08664076
180	0xbcea16eb	-0.028575381
181	0xbcb5ad12	-0.022177253
182	0x3decc0b9	0.115601964
183	0xbc470c45	-0.012148921
184	0x3e4f6dbc	0.20256704
185	0x3e2b5653	0.16732149
186	0xbb33777d	-0.0027384453
187	0xbd88a7de	-0.06672643
188	0xbd815a47	-0.06316047
189	0xbd368da4	-0.044568673
190	0xbe536cf6	-0.20647034
191	0x3cbd670e	0.02312043

gru.bias_hh_l1 f4 [192]
0	0x3dae48bd	0.085099675
1	0x3db5b658	0.0887267
2	0x3e35e205	0.17762001
3	0x3d3067bd	0.043067683
4	0x3e4f9754	0.20272571
5	0x3e58d983	0.21176724
6	0x3e598ea1	0.21245815
7	0xbf2175a6	-0.6307014
8	0x3d0f1196	0.03492888
9	0x3d9a5460	0.075356245
10	0xbd19c736	-0.037543498
11	0x3dde90c5	0.10867456
12	0x3ead63f0	0.3386531
13	0x3a3ccdde	0.00072023075
14	0x3e2e82c2	0.17042068
15	0x3dfc217c	0.12311074
16	0x3ec25f38	0.3796327
17	0x3d97f53e	0.07419823
18	0x3e0d0532	0.13771513
19	0x3e933245	0.2874929
20	0x3e130cdb	0.14360373
21	0x3d0bba05	0.03411295
22	0x3da8a77f	0.08235072
23	0xbcdc1d33	-0.026869392
24	0x3d2198c0	0.039452314
25	0x3de8dc4f	0.113701455
26	0x3df50e13	0.11965575
27	0x3d9c42bf	0.07629918
28	0x3ddf4ae7	0.10902958
29	0x3daea1ad	0.08526931
30	0x3e099b82	0.13438228
31	0x3f153a60	0.582922
32	0xbcf1b450	-0.029504925
33	0x3d31e858	0.04343447
34	0xbc933449	-0.017969267
35	0x3d040e83	0.032240402
36	0xbe2e2fa2	-0.17010358
37	0xbcdfdd0b	-0.027327081
38	0xbcd82c8c	-0.02638843
39	0x3d1cd43f	0.03828835
40	0x3d8ed620	0.06974435
41	0x3eee46ec	0.46538484
42	0x3e28ae99	0.16472854
43	0x3cff891f	0.031193314
44	0x3e299f61	0.16564704
45	0x3e8b450b	0.27201113
46	0x3e3ad6e4	0.18246037
47	0x3ce9331f	0.02846676
48	0x3e0e9ad7	0.13926254
49	0x3e108e45	0.14116772
50	0x3d985860	0.07438731
51	0x3cbae4b3	0.02281413
52	0x3e22d711	0.15902354
53	0x3e47289a	0.19449082
54	0x3e189b59	0.1490301
55	0x3dc190a6	0.094514176
56	0xbc03e211	-0.008049504
57	0x3ed04d38	0.40683913
58	0x3e811eb2	0.2521873
59	0x3d5f3fac	0.05450408
60	0x3d1550fd	0.03645419
61	0x3d96aa1d	0.07356665
62	0xbd30314a	-0.043015756
63	0x3e73a00d	0.23791523
64	0x3f000932	0.5001403
65	0x3e39b911	0.18137003
66	0x3eaa0292	0.33205086
67	0x3f6eefea	0.9333483
68	0x3f30867a	0.68955195
69	0x3ed7c2fd	0.42140952
70	0x3e94252d	0.28934613
71	0x3f6f53be	0.93487155
72	0x3f8be01e	1.092777
73	0x3f0aa3ae	0.54156005
74	0x3fa71d68	1.3055849
75	0x3fa489c8	1.2854548
76	0x3f9a7b0e	1.2068803
77	0x3f0f3cd4	0.5595219
78	0x3e95f272	0.29286534
79	0x3f7bbabc	0.9833181
80	0x3fdaefc4	1.7104421
81	0x3f842196	1.032275
82	0x3f58efa2	0.8474065
83	0x3f49e649	0.7886701
84	0x3f012cf6	0.5045923
85	0xbcea3140	-0.028587937
86	0x3f5c0a5e	0.8595332
87	0x3f0ff51f	0.562334
88	0x3f6d98aa	0.9281107
89	0x3f18cf6b	0.59691495
90	0x3f65d588	0.8977895
91	0x3e640c05	0.2227021
92	0x3ecffe9a	0.40623933
93	0x3f398fb6	0.7248491
94	0x3ef0546f	0.46939418
95	0x3fa4baee	1.2869546
96	0x3ee2970f	0.44255874
97	0x3f6f1277	0.9338755
98	0x3fa95e47	1.3231896
99	0x3e120eeb	0.14263503
100	0x3eb6f7bf	0.3573589
101	0x3fb38723	1.4025615
102	0x3fa4ed40	1.2884903
103	0x3faa4bf1	1.3304425
104	0x3f3a804e	0.7285203
105	0x3f08746c	0.53302646
106	0x3ee9bcfd	0.45652
107	0x3f0ecf8f	0.5578546
108	0x3eb0ad51	0.3450723
109	0x3ec6a6a8	0.38799024
110	0x3ef463d5	0.47732416
111	0x3f4ee81c	0.8082292
112	0x3eb748a4	0.35797608
113	0x3ee4a7d5	0.44659296
114	0x3f2708da	0.6524788
115	0x3ee645a1	0.44974998
116	0x3ebfa0c8	0.37427354
117	0x3f702295	0.9380277
118	0x3f51d4e6	0.8196548
119	0x3ec37484	0.38174832
120	0x3f270cde	0.6525401
121	0x3f83127c	1.0240016
122	0x3f454132	0.77052605
123	0x3eb89685	0.36052337
124	0x3dbb666e	0.09150396
125	0x3eb5bcf6	0.35495728
126	0x3eea0d92	0.45713478
127	0x3e97f5fb	0.29679856
128	0x3ebca4bb	0.3684443
129	0x3eef485d	0.46734896
130	0xbf00de7f	-0.503395
131	0xbecdba32	-0.40181118
132	0xbf0dc6b6	-0.55381334
133	0x3f05c5bb	0.5225484
134	0x3eff4e4d	0.49864426
135	0x3d390b1f	0.04517662
136	0xbeccc4ad	-0.39993802
137	0xbed64a80	-0.41853714
138	0x3ecb871a	0.39751512
139	0x3ef206ed	0.4727091
140	0x3f00251a	0.5005661
141	0x3eaecb9f	0.34139726
142	0x3f7ce7c0	0.9879112
143	0x3eb6b70b	0.35686526
144	0x3f016170	0.505393
145	0x3eff90ad	0.49915066
146	0x3ee502f4	0.44728816
147	0xbf0bca36	-0.54605424
148	0x3ede247f	0.4338722
149	0x3f17ab5e	0.5924586
150	0xbeba15c2	-0.36344725
151	0x3eca0cd6	0.39462918
152	0x3ebbfc0c	0.36715734
153	0x3f0c8142	0.5488473
154	0xbf065c2c	-0.52484393
155	0x3eb7e3fb	0.35916123
156	0xbf185737	-0.5950808
157	0x3ed9ccbd	0.42539015
158	0xbec26bd9	-0.37972906
159	0xbeab9751	-0.33513883
160	0xbf0ad1be	-0.5422629
161	0x3ecc7b74	0.39937937
162	0xbece8496	-0.4033553
163	0xbec1e032	-0.3786636
164	0x3efb355d	0.4906415
165	0xbea5f177	-0.32410786
166	0x3ea55964	0.32294762
167	0xbec8ad80	-0.3919487
168	0x3eaa0b2a	0.33211643
169	0x3edf2ad8	0.43587375
170	0xbef1db37	-0.4723756
171	0xbece2e8f	-0.40269896
172	0x3f08fbb6	0.5350908
173	0x3ef57ee1	0.47948363
174	0xbf09536b	-0.5364291
175	0xbefab82a	-0.4896863
176	0x3f057452	0.52130616
177	0x3f36f114	0.71461606
178	0xbe933787	-0.28753302
179	0xbedb44ab	-0.42825827
180	0xbf0f6d1b	-0.56025857
181	0xbefa5bf6	-0.48898286
182	0x3f17cef1	0.5930014
183	0xbee3b21b	-0.4447182
184	0x3ebbaa18	0.3665321
185	0x3ed0e5eb	0.40800413
186	0xbef51ede	-0.47875112
187	0x3ef54351	0.4790292
188	0xbeee8bca	-0.46591026
189	0xbe99bd59	-0.30027273
190	0xbea49c7f	-0.32150647
191	0xbef76352	-0.48317963

fc.weight f4 [1, 64]
0	0x3dc6d58e	0.09708701
1	0x3dc0a896	0.09407155
2	0xbdb4cacb	-0.08827742
3	0xbded4efa	-0.11587329
4	0xbdeceda4	-0.11568764
5	0x3de256e6	0.11051731
6	0x3db2b87a	0.08726592
7	0xbd99ef17	-0.07516306
8	0xbdda014a	-0.10644777
9	0xbde30235	-0.11084405
10	0x3e10765e	0.14107653
11	0x3e09460b	0.13405626
12	0x3df77bf6	0.120841905
13	0x3d9bc7c1	0.076064594
14	0x3d6ef8da	0.058342792
15	0x3de1ec71	0.11031426
16	0x3e3fee68	0.18743289
17	0x3df78e2c	0.12087664
18	0x3daf6d52	0.08565773
19	0xbdd9f6f9	-0.106428094
20	0x3dcd0190	0.10010064
21	0x3dbb9a7e	0.091603264
22	0xbdd0a47b	-0.10187622
23	0x3d5e5e8f	0.054289397
24	0x3dbec0e7	0.09314137
25	0x3df33543	0.11875393
26	0xbde84950	-0.11342108
27	0x3da29ed2	0.07940449
28	0xbdacd64e	-0.08439313
29	0x3da1d915	0.07902733
30	0xbdf448a6	-0.11927919
31	0xbe203439	-0.15644921
32	0xbd9dffe2	-0.077148214
33	0x3df4ed60	0.11959338
34	0xbdff4f3a	-0.12466283
35	0xbd966d55	-0.07345072
36	0x3db057ba	0.086104825
37	0xbdbacb7a	-0.09120841
38	0x3e1b4763	0.1516395
39	0xbde57a5e	-0.1120498
40	0x3dc858aa	0.09782536
41	0x3e058909	0.13040556
42	0xbd9acdc7	-0.0755878
43	0xbdacd381	-0.08438779
44	0x3d988712	0.074476376
45	0x3e0ecb8e	0.13944837
46	0xbdcaa2dd	-0.09894345
47	0xbdd5589d	-0.10417292
48	0x3df8540d	0.121254064
49	0x3d6eb76f	0.058280405
50	0xbde0bfce	-0.10974084
51	0xbda3e67f	-0.08002948
52	0xbdad6a93	-0.08467593
53	0xbda616c1	-0.08109809
54	0x3de5c806	0.11219792
55	0xbd9e811b	-0.07739469
56	0x3daee439	0.08539624
57	0x3df0d435	0.11759225
58	0xbdcecdad	-0.10097823
59	0x3dacae6d	0.084317066
60	0xbd9436de	-0.072370276
61	0xbda2e573	-0.0795392
62	0xbdbdcf25	-0.09268025
63	0xbd8c02c0	-0.06836462
