best_lstm_model.pth (torch, 237260 bytes, 9 tensors)

lstm.weight_ih_l0 f4 [256, 33]
000000 7f 06 75 be 01 fd 92 3e a6 de a7 3e 5d 42 a4 3e
       -0.2392826 0.28708652 0.32787055 0.3208188
000010 78 4a 56 3e 5e 52 a8 3e fa ca bf be cc 6e 9a 3d
       0.20926845 0.3287534 -0.37459546 0.07540664
000020 d3 55 d5 3d 3b b3 b1 3d d2 4c 86 3c e5 49 c3 3e
       0.1041676 0.086767636 0.016394053 0.38142315
000030 c8 a9 82 3f 98 50 89 bc b1 91 e0 bd 07 e5 f5 3c
       1.0208063 -0.016762063 -0.109652884 0.030016435
000040 62 0d 6b 3e ea 0f b7 3e 81 e9 a9 bd 4b e4 e2 bc
       0.22954324 0.3575433 -0.082964905 -0.02769675
000050 67 f9 a8 bb c6 24 7f 3d 6d ee 57 be 03 7e c3 3c
       -0.005156684 0.06229093 -0.21087046 0.023863798
000060 68 61 84 bd 8f 24 9c 3e ad 65 0e be 91 44 41 be
       -0.06463891 0.30496642 -0.13905974 -0.18873812
000070 07 54 04 be 57 4e 90 bd 0e 77 83 be ae 81 85 be
       -0.12922679 -0.07046192 -0.2567677 -0.260755
000080 d0 bc c1 3d 0a 95 8f 3e e6 cc d2 bd 7a fb 53 3e
       0.09459841 0.28043395 -0.102929875 0.207014
000090 d6 62 84 be 2f 8d 83 be 5f 28 b5 3e c5 66 9b 3d
       -0.25856656 -0.25693652 0.35382363 0.07587961
0000a0 85 0e 07 3d 24 6f 6c 3c 8d 47 64 3c 5b 2d de 3c
       0.03297283 0.014430795 0.013933075 0.027121237
0000b0 fe a5 b2 bd cf 0f 11 3e 93 1b 1b bd 8a 95 e8 bd
       -0.08723067 0.14166187 -0.037868094 -0.11356647
0000c0 38 15 98 3d 29 9f 61 bd d7 af dc bd 30 eb 05 be
       0.07425922 -0.055083428 -0.10775726 -0.13077998
0000d0 ed ee 10 be 34 41 06 be 08 9d 71 be 2d c1 02 be
       -0.14153643 -0.1311081 -0.23595059 -0.12769003
0000e0 9b ca b7 bd c7 e2 82 bd a2 37 9d 3e 57 c3 d9 bd
       -0.08974191 -0.063909106 0.30706507 -0.10632961
0000f0 34 ac 0e 3f ee 5d 0f be 2c 71 5c 3e 39 0d 3a be
       0.5573151 -0.14000675 0.21527547 -0.18169107
000100 a7 f7 a5 bd c3 ab 76 3d c7 80 c4 bd e2 06 95 bc
       -0.081038766 0.0602224 -0.09594875 -0.018191759
000110 15 47 57 3e 00 53 d0 3d af 59 1b 3e a2 4f 08 bf
       0.2102321 0.10172081 0.1517093 -0.5324651
000120 33 a7 9e 3e e9 cb 85 bd 48 e6 ae 3d 95 0d db 3d
       0.30986938 -0.065330334 0.085400164 0.1069595
000130 62 cf 63 bd a4 3d b3 be 89 f2 32 3e ea f9 67 bc
       -0.055617698 -0.35007966 0.17475332 -0.014158705
000140 6d 0e d0 3c 10 5d 1b 3d ec 1a 07 3e 5a 16 0d be
       0.025397504 0.03793055 0.13193864 -0.13778058
000150 99 cb d3 bd 7c 0f 48 bd b3 82 5c bd f6 e5 7c 3d
       -0.103415675 -0.048842892 -0.053835582 0.061742745
000160 cb ce 13 bd 46 f8 5e bd 9b 1b 11 3d 68 de b5 bc
       -0.036085885 -0.05443599 0.035426717 -0.022200778
000170 0b 27 10 bd 23 69 9b 3d e2 f7 a2 bd 63 c8 08 3d
       -0.035193484 0.075884126 -0.07957436 0.03339423
000180 26 51 b0 bd ba 76 87 3c 52 76 77 3e 6f f0 37 bd
       -0.08609228 0.016536105 0.2416623 -0.04490703
000190 ae 3e e8 3d b6 64 0b 3f 1a 0f 03 bf 33 7f 9c 3f
       0.1134008 0.5445055 -0.5119492 1.2226318
0001a0 1b ae 58 be a2 b4 09 bc d5 c5 fe 3d ba 63 54 3c
       -0.21160166 -0.008404883 0.12440077 0.01296323
0001b0 d8 25 20 3d 7f 64 44 bd 3f b3 b4 3c 5a fc fd 3d
       0.03909859 -0.047947403 0.022058127 0.12401648
0001c0 f8 9f b7 3d 2c 90 30 3d a0 53 87 3c 19 0d e2 bd
       0.089660585 0.043106243 0.016519368 -0.110376544
0001d0 c0 2e fc 3c 17 f6 be be 5b cb 43 3d 1d 8b 75 bd
       0.03078401 -0.37297127 0.047801357 -0.059947122
0001e0 10 c7 23 3e 29 1e 51 3e 44 f8 a5 bd d6 da 21 be
       0.15993905 0.20421661 -0.081039935 -0.15806136
0001f0 d6 c2 85 3e e3 9b c3 bc 50 cd 92 3c 54 6d 95 3d
       0.2612521 -0.023878044 0.017920166 0.07296243
000200 eb 8c 84 3d 32 d7 48 3e be e3 45 be a8 28 e4 bd
       0.064721905 0.1961334 -0.19325158 -0.11140567
000210 a5 8c 7c bc 38 12 be bd 1d 14 4b 3e 18 98 81 3d
       -0.015414392 -0.09280819 0.19831891 0.06327838
000220 e7 a9 8b 3c 23 6a 40 3c 30 5e c9 3d c9 f2 7e bc
       0.01704879 0.011744055 0.09832418 -0.015560814
000230 90 8c 0e bd 22 23 be 3b 7e 29 07 bd 1b 42 34 be
       -0.03480202 0.005802528 -0.032998554 -0.17603342
000240 ca e2 52 bc e0 c9 31 3b af a8 5d bd cb 03 db 3b
       -0.012871454 0.0027128384 -0.054115947 0.0066838018
000250 80 1f 5f bd 49 42 30 3d b1 3a 2f 3d f4 2d 93 3d
       -0.0544734 0.043031964 0.04278058 0.07186499
000260 07 19 c3 3d 5a 79 87 bc b0 2c 40 3d 94 3b 63 bc
       0.09526258 -0.016537357 0.046917617 -0.013869185
000270 dc 1d e2 3d 6a 89 55 bd b2 ea b4 3d 65 8f c0 3c
       0.110408515 -0.052133 0.08833827 0.023505876
000280 4d 67 07 3d 6b b4 cd ba 5f a1 21 3d e0 47 ee bc
       0.0330575 -0.0015694028 0.039460536 -0.029087007
000290 57 af 51 3e 47 a0 99 3e d4 b2 46 be 68 30 93 3d
       0.20477043 0.30005094 -0.19404155 0.07186967
0002a0 a7 9d 58 3e 0d 06 a3 3d 70 ec 04 be e0 80 25 3d
       0.2115389 0.079601385 -0.12980819 0.040406108
0002b0 d0 10 b0 bc 89 4a 5f bc e1 09 97 3c 18 f6 90 3d
       -0.021492392 -0.01362861 0.018437328 0.07078189
0002c0 fa 53 1e be 51 59 d1 3d 36 4a 74 bc c5 2f b2 3d
       -0.15461722 0.10222114 -0.014910271 0.087005176
0002d0 3a 54 87 bc 28 75 16 3e cd 5d c2 3d d6 bc bc 3d
       -0.016519655 0.14693129 0.09490547 0.09215705
0002e0 26 df 83 3e 4a a8 fe 3d 58 da 07 be b0 a8 ea 3d
       0.25756186 0.12434442 -0.13266885 0.11457956
0002f0 9c bd 18 3e cc 28 c3 3d aa e1 1f 3f 21 bc 9c 3d
       0.1491608 0.09529266 0.6245371 0.0765307
000300 dd 8f a6 bd 29 1a 2e 3e 0a b5 97 be 49 b3 0c bd
       -0.081329085 0.17002167 -0.2963031 -0.034350667
000310 6a 29 47 bc d3 3b a9 bd f8 d0 a0 3d 4c c7 3e bd
       -0.01215587 -0.08263364 0.078523576 -0.046576783
000320 21 68 09 3f c8 fd b1 be c4 64 53 3e 2f e5 53 3e
       0.53674513 -0.34763932 0.20643908 0.20692895
000330 fe 62 0a 3e c5 9f 2b be 00 84 0b bd d5 c2 04 bd
       0.13514325 -0.16760166 -0.034061432 -0.03241237
000340 af 36 03 3d 58 6f 23 bd cf 40 ed bc b8 56 0b 3e
       0.032034572 -0.039901108 -0.028961567 0.136073
000350 3e 03 ab 3d 08 4a 12 3e 5f 63 8a 3e 53 95 73 bd
       0.08350228 0.14286053 0.2702894 -0.05946858
000360 88 04 8b 3d 6d f5 6b bd e2 58 3c be 73 83 1e be
       0.06787974 -0.057607103 -0.18393281 -0.15479831
000370 a6 69 d4 3e 82 b0 03 3e a5 d3 2f bd df 3a 96 bd
       0.41486853 0.12860301 -0.04292645 -0.073354475
000380 18 2e 86 be d1 b4 86 bd 9d 2b 0b bd 6d 41 f6 3d
       -0.26207042 -0.06577457 -0.03397714 0.12024198
000390 d6 d7 00 3e ae 38 82 3e 49 8a 9d bd 46 55 1a 3e
       0.12582335 0.25433868 -0.076923914 0.15071592
0003a0 81 36 89 3e bb 40 5e be d8 99 28 be 2b 39 07 bf
       0.26799396 -0.2170438 -0.16464937 -0.52821606
0003b0 ba df db bc 61 3e 1d bd cf 42 a2 3c cd 2c 3f 3e
       -0.02684008 -0.038389567 0.019807247 0.18669434
0003c0 b8 31 f8 b9 70 6b b4 bc 51 86 ea bc ab aa 69 3e
       -0.0004733929 -0.022023886 -0.0286285 0.22819011
0003d0 f9 07 31 3e 85 b6 f1 3d df 98 c2 bb 46 5b 42 bd
       0.17288198 0.11802391 -0.005938634 -0.047450326
0003e0 f9 fc b1 be ce ae 08 3e dc e3 23 bf b6 13 7b be
       -0.34763315 0.13347933 -0.6401956 -0.24519238
0003f0 61 ee 88 3e ed 6e b8 3e 8e 3f 63 3e 01 ac 94 be
       0.2674437 0.3602213 0.22192213 -0.2903748

lstm.weight_hh_l0 f4 [256, 64]
000000 1c 38 f9 bd e0 a1 80 be bf 79 60 3d 62 ef 5e bd
       -0.12168905 -0.251235 0.054803606 -0.054427512
000010 00 36 90 bd f8 8e 4a 3e 4f 4d 14 bd f2 ae 9a 3e
       -0.0704155 0.19781101 -0.03620654 0.30211598
000020 5c 54 b9 bd cd 4e 61 3c fb c4 b7 3d a7 0b e2 3d
       -0.090492934 0.013751698 0.08973118 0.11037379
000030 9a 53 9c 3d 91 cc d8 bd 50 12 1c bd 1a 09 13 3e
       0.07633133 -0.10585893 -0.0381034 0.1435894
000040 ae f8 c5 bc 95 2c 21 3e 79 1e 9d 3e fc 68 95 bc
       -0.024166431 0.15739663 0.3068731 -0.018238537
000050 7f e0 04 be d9 92 e0 3d 5d 02 a8 3d 0c f8 5a bd
       -0.12976263 0.10965509 0.08203576 -0.053459212
000060 53 0c 12 3c e6 e3 0b 3e 20 d3 81 bd 36 9e e5 bd
       0.008914071 0.13661155 -0.06339097 -0.11211817
000070 c6 de 0c 3c f0 83 2a be b1 0a c3 3e 41 96 39 3e
       0.008598035 -0.16651893 0.38094094 0.18123724
000080 72 c2 7c be dc 13 07 3e a6 a4 05 be e4 be 3a bd
       -0.2468355 0.1319117 -0.1305109 -0.045592204
000090 90 33 95 3d f3 9a 95 3c 10 75 6a bd f9 34 fc 3d
       0.072852254 0.018262362 -0.057240546 0.12314791
0000a0 97 fc 20 be f5 64 29 bd 8e fb 32 be 0d d1 82 3e
       -0.15721355 -0.041356046 -0.17478773 0.25550118
0000b0 dd 7c 1c 3e 7c f5 ea bc 67 eb fc bc 8d 8a 30 be
       0.15282007 -0.02868151 -0.030873967 -0.17240353
0000c0 7e 2e 42 3e cc ac f1 3c 9f ca 30 bd 23 49 46 3c
       0.18963048 0.029501341 -0.043161985 0.012102398
0000d0 a3 18 9e 3c fc dd 62 3e 13 7a 4a bd da 72 2c 3d
       0.019298857 0.22154993 -0.049432825 0.04210172
0000e0 d6 f7 92 bd 4b 01 6d bc ae bd 25 3d 30 45 34 3e
       -0.07176177 -0.01446564 0.040464096 0.17604518
0000f0 e4 22 90 3e 50 82 45 be ab a3 d8 bd cf 8d 21 3e
       0.2815162 -0.19287992 -0.10578092 0.15776752
000100 da 76 3b 3d e7 dd 02 bd 8d c9 44 3d 75 19 3b bd
       0.045767643 -0.031949904 0.048043776 -0.045678575
000110 c2 bf 0c bd eb 3a 8c 3d 4c 63 76 3d d5 04 0c 3c
       -0.034362562 0.06847175 0.06015329 0.008546074
000120 21 b1 76 3d f5 9d 29 bc 06 55 06 3d 7f 80 4b 3d
       0.060227517 -0.010352601 0.03279593 0.04968309
000130 34 cf 40 3c 58 06 3c 3d 1d 62 f1 3d df e6 3d 3d
       0.011768151 0.045904487 0.11786292 0.046362754
000140 0f b0 b4 bc 2a 1b da 3d ed d1 0c 3d d2 ec 07 ba
       -0.022056608 0.106497124 0.03437989 -0.000518513
000150 7d b7 d3 bd 55 26 e3 bd 0b 43 d9 bc ce 74 57 3d
       -0.10337732 -0.11091296 -0.026521226 0.052601628
000160 c1 cb a7 3c 3a 7a f8 3c 12 c9 e3 3d b2 14 4f 3d
       0.0204829 0.03033172 0.111223355 0.050556846
000170 b9 94 0a 3d 0b ca fa 3c 09 10 03 be f4 c4 72 3d
       0.03383324 0.03061392 -0.12799086 0.05926986
000180 3b 6f 93 3d e0 72 8b 3d 24 5e f1 bc b1 83 5e 3d
       0.0719895 0.0680902 -0.029463835 0.05432481
000190 c6 24 12 bd f0 e5 4b 3d 11 e7 32 3d 5a a9 09 be
       -0.0356796 0.049779832 0.043677393 -0.13443509
0001a0 4f 4d 6c bd 64 e7 25 3d 2c be a3 bd 14 cb 83 bd
       -0.057690915 0.040503874 -0.07995257 -0.064352185
0001b0 5b 41 98 bd 17 bc 04 3e 2c ab df 3c f3 ce cb 3d
       -0.074343406 0.12962376 0.0273033 0.09951582
0001c0 78 7a 9c 3b a1 4d 97 bd 2b c6 b4 3d c3 fa 1c bd
       0.0047753416 -0.073878534 0.0882686 -0.038325083
0001d0 de 5b f3 bd 43 a1 e0 3d cc 2e 6b bd 74 f7 3a bb
       -0.11882757 0.10968258 -0.057417676 -0.0028528841
0001e0 4b 22 b6 3b f0 e9 96 3d 9c 72 5d 3d a3 09 91 bd
       0.0055582873 0.07368839 0.05406438 -0.07081916
0001f0 0d 7d 72 bd 74 d0 68 bd 51 c6 35 3d 3c 14 ad 3d
       -0.05920129 -0.05683942 0.044378582 0.08451125
000200 b4 88 b6 3c 99 1c af 3c 1f d6 eb 3d c6 1a 82 bb
       0.022281982 0.021375941 0.1151545 -0.003970477
000210 2a 04 8c 3c b4 9e 80 bd 02 1e cf bd 73 81 6a 3c
       0.01709183 -0.0628027 -0.101131454 0.01431309
000220 60 53 e1 3c ca c5 04 3d 9c fb 79 bc 2d f6 c4 3c
       0.027505577 0.03241519 -0.015257742 0.024043167
000230 3e 2b fe bd 69 22 04 3e e2 8d 1c bd 41 a4 61 3c
       -0.124105915 0.12903751 -0.038221247 0.013772071
000240 80 12 17 be 77 67 60 bd 52 d6 3b 3d ba e3 9d bc
       -0.14753151 -0.05478617 0.04585869 -0.019273628
000250 22 3e b5 3d dc b9 9e bc 79 57 5d bc 76 6b 07 bd
       0.088497415 -0.019375734 -0.013509625 -0.033061467
000260 a0 c6 81 bd 9f 72 00 3e 27 49 b6 bd 1e c5 c5 bc
       -0.06336713 0.12543724 -0.089006715 -0.024141844
000270 55 0e 3e bc 2f 51 ba 3d a2 dc 9e 3e 68 bf 22 bb
       -0.011600097 0.09097516 0.31027704 -0.0024833325
000280 64 ef 20 ba 10 4a 50 3d 87 65 97 bd d4 64 fa bd
       -0.00061391876 0.05085188 -0.07392412 -0.12226263
000290 43 92 76 3d 73 55 c7 3d 84 7b 09 3e 1e b6 79 3d
       0.06019808 0.09733095 0.13426024 0.060964696
0002a0 c5 33 02 be 16 01 d8 3d 1a 06 6f bc dc 01 56 3d
       -0.12715061 0.10547082 -0.014588857 0.052247867
0002b0 23 c2 d7 3c 02 e1 9b bc b6 d9 01 bd 95 39 94 3c
       0.026337689 -0.01902819 -0.031701766 0.018093864
0002c0 3d 59 59 bb 7c 79 01 3e 4f ee dd 3c c7 18 73 bd
       -0.0033164762 0.12643999 0.027091173 -0.0593498
0002d0 b4 17 3f 3c 7f 10 c9 bd 49 74 1e be 36 c2 60 3d
       0.011663366 -0.098175995 -0.15474047 0.054872714
0002e0 27 c7 ec 3d 7f 18 59 bd dc 52 94 3c be b4 fa 3d
       0.11561423 -0.053001877 0.018105917 0.12241505
0002f0 83 06 a1 3d ac f0 07 bd eb 08 21 bd 02 7b e2 bc
       0.0786257 -0.033188507 -0.039315145 -0.027646545
000300 1f 86 96 3d 06 80 58 be d5 b5 e0 3d c5 2f a0 be
       0.073498 -0.21142587 0.10972182 -0.31286445
000310 a5 c8 b6 bd 7a 5c f1 3d 27 b3 7f 3e 06 41 6b 3e
       -0.08924989 0.11785217 0.24970685 0.22974023
000320 58 df 8b 3c 69 fe 35 be 3f 8d e3 3d 6a 90 b0 3d
       0.017074272 -0.17772831 0.11110925 0.08621295
000330 fe a2 d1 bd a5 d6 03 3e 41 24 19 be c0 3d 1d 3e
       -0.102361664 0.12874849 -0.14955236 0.15355587
000340 d4 32 e9 bd 37 ab 7a 3c dc b1 39 3e 92 76 b4 ba
       -0.11386648 0.01529961 0.18134254 -0.0013768247
000350 f4 05 bb 3c 0d 28 f9 3d 55 fa ce 3d de e6 f5 bd
       0.022829987 0.12165842 0.10106341 -0.12006925
000360 3e 45 f2 bd f2 1a b9 3d 86 3c 6e be 29 f5 5d be
       -0.11829613 0.090383425 -0.23265275 -0.21675552
000370 2a 09 17 3c 5c 3d f5 3d 68 7f e2 3e 7a b7 4d be
       0.0092184935 0.11974594 0.44237828 -0.20089522
000380 cb a0 a3 3c 44 3a 19 3e dd b6 74 3c f2 9d 9e 3d
       0.019974133 0.14963633 0.014936176 0.077449694
000390 a9 85 fb 3c 85 df 22 3e e3 a9 20 3e 57 d9 da 3c
       0.030703383 0.15905578 0.15689807 0.026714964
0003a0 50 80 78 bd a8 6c 95 3e 3b dd 8e be 70 a3 b9 3e
       -0.060669243 0.2918446 -0.2790316 0.36257505
0003b0 17 35 e4 3d 45 f0 48 be 8d 4d 2b bd 1e 11 78 bd
       0.111429386 -0.19622906 -0.041822005 -0.0605632
0003c0 55 71 16 3e 1e bb f8 3d ea 85 7d be 4f 1f 36 be
       0.1469167 0.12145065 -0.24758115 -0.17785381
0003d0 0d ab bc bc b2 b4 a1 be 68 5c 09 be 45 db 8c 3e
       -0.023030782 -0.31583172 -0.13414156 0.2751104
0003e0 08 e0 e5 3d a8 80 b6 bc 65 70 4f 3d ad 6f 60 3e
       0.11224371 -0.022278145 0.050644297 0.21917601
0003f0 6f 47 0b 3e 02 ac 2b 3c c0 74 55 be 9b 45 ad 3d
       0.13601469 0.010478022 -0.20845318 0.08460542

lstm.bias_ih_l0 f4 [256]
000000 08 d6 1c bf 87 de 7d be 8c a2 8e be 8b a7 d3 bd
       -0.61264086 -0.24791919 -0.27858388 -0.10334691
000010 4b 29 a8 bd 76 f9 82 be d0 8e 42 be 0b b0 94 be
       -0.08211001 -0.2558095 -0.18999791 -0.2904056
000020 24 75 f6 3d 4e 0c 5f be 4e e8 b6 be 29 d0 9b be
       0.120340616 -0.21782038 -0.3572411 -0.3043225
000030 50 98 2f be 59 3e 15 bf cd 54 eb 3e 67 71 03 bf
       -0.17147946 -0.5829826 0.45963135 -0.51344913
000040 d6 00 58 be 8f 3d 87 be 8f 51 bb 3e c7 fb c1 be
       -0.21094069 -0.26414153 0.36585662 -0.37887403
000050 fe 22 af be 45 8a 98 be 76 be 73 be 09 20 70 be
       -0.34206384 -0.2979299 -0.23803124 -0.2344972
000060 77 56 54 3b bc 81 cb 3e 3c 2c 3c be 88 ab 87 be
       0.003240017 0.39747417 -0.18376249 -0.26498055
000070 5c e1 91 be e7 f9 5b be f8 f6 fb 3e b4 0a e7 3c
       -0.28492248 -0.21482049 0.4921186 0.028203346
000080 b5 40 d3 be 6c 29 d4 be 03 4b 69 3e fd e5 36 bd
       -0.41260305 -0.41437852 0.22782521 -0.044652928
000090 f7 99 e5 be 8e 36 56 be 5b 83 27 bf 8b 78 e1 be
       -0.44844028 -0.20919248 -0.6543481 -0.4403728
0000a0 ab c8 0d bf b1 12 3f 3e cc cf 3e 3e b9 74 b6 3d
       -0.5538432 0.18659474 0.18633956 0.08908982
0000b0 e7 b6 3f be 42 83 4e 3e 82 33 09 bf b2 1e b3 be
       -0.18722115 0.20167258 -0.5359422 -0.34984356
0000c0 11 64 65 be c0 82 da be ac 41 87 3e b4 18 6f 3e
       -0.22401454 -0.4267788 0.2641729 0.23349267
0000d0 4e 76 0f 3f 5c 36 92 bd 9e 3e e3 bd 6d 0e 0d bf
       0.56039894 -0.071392745 -0.11095928 -0.55100137
0000e0 7f 44 9d be b8 41 03 bf bc 9d 67 be 8b a0 67 3f
       -0.3071632 -0.51272154 -0.22618765 0.90479344
0000f0 3f 07 c6 bd 4c b1 a8 be d6 82 18 3a 89 0c d0 3c
       -0.09669351 -0.32947767 0.0005817836 0.025396602
000100 91 07 9d be c1 81 89 be c8 00 04 bd 0d 33 21 bf
       -0.30669835 -0.26856807 -0.032227308 -0.6296852
000110 2f 34 2b be a2 a1 31 be da 7c 50 be 75 1f 81 3e
       -0.16719125 -0.17346814 -0.20360127 0.25219312
000120 ae 40 06 bf 4e 2d 38 be 4a a0 43 be d2 db 59 be
       -0.52442443 -0.17986032 -0.19104114 -0.21275261
000130 60 7d c7 bd 19 10 b9 be 98 19 09 bf d1 bb 97 be
       -0.0974071 -0.36145094 -0.5355468 -0.2963548
000140 f9 70 c2 bb c1 71 a3 be cc 41 a4 be cb 45 aa bd
       -0.0059338775 -0.31922725 -0.3208145 -0.08314093
000150 8e 8e 51 be 0b 1d 02 bf 0b 9c a6 be 7a c8 a2 be
       -0.20464537 -0.50825566 -0.32540926 -0.31793576
000160 8b 1b 18 bf d2 a8 e2 be 41 c4 ec be 33 30 90 be
       -0.5941703 -0.44269425 -0.4624348 -0.28161773
000170 37 fc 13 be c4 e3 8a 3d 50 da 9e be 55 b0 bd be
       -0.14451681 0.06781724 -0.31025934 -0.37048593
000180 06 ec ce be 71 fe 4f be 8b 6d 92 3e 79 64 c9 be
       -0.40414447 -0.20311905 0.285992 -0.39334467
000190 0f 6e 6d be 3f 95 95 be 4b 5d 87 be 9c 96 a8 be
       -0.23186515 -0.29215428 -0.26438364 -0.32927406
0001a0 a6 4d 8c be 74 6d ff be df 3c dd be 23 c7 0a bf
       -0.2740299 -0.49888194 -0.43210503 -0.5421011
0001b0 82 56 82 be 67 ec 1b bf 9b 4a 18 be 2b 9a da bd
       -0.25456625 -0.60907596 -0.1487221 -0.106739365
0001c0 bc e6 a1 be 5c 20 93 3d 0c bb 0c bf 54 28 df be
       -0.3162135 0.071839064 -0.5497291 -0.43585455
0001d0 af 3a 98 be f2 f8 88 3d 6e 98 c4 be ec 10 53 be
       -0.29732272 0.066881076 -0.38397545 -0.20611924
0001e0 3a ab 21 bd ee 1d 53 be 3f f5 b0 be 16 59 ee be
       -0.039469935 -0.20616886 -0.34562108 -0.46552342
0001f0 34 bb 0b bf 48 e1 06 bd 34 38 9d be 19 ee ce be
       -0.54582524 -0.03292969 -0.30706942 -0.4041603
000200 ad 53 1f bf 4f 91 17 be 99 8d e4 3e 3c 1c 66 be
       -0.62237054 -0.14801525 0.4463928 -0.22471708
000210 24 d6 d4 3e e8 98 63 3e ec bf 2e 3f 85 4a f9 be
       0.41569626 0.22226298 0.682616 -0.48689666
000220 19 d9 1d 3f 16 a7 bc be d2 50 a7 3e c3 0b b6 3e
       0.6165939 -0.36846226 0.32678849 0.35555848
000230 80 87 cd be 81 09 d1 be 2a 65 7c be 6d 57 8b 3e
       -0.4014244 -0.40827563 -0.24647966 0.27215138
000240 27 13 c8 be 3c 78 3c bf 91 f5 a7 be 24 42 ea be
       -0.39077112 -0.73620963 -0.3280454 -0.45753586
000250 d4 30 1d 3f d0 db 5c 3e 4f f7 57 3e e9 43 a9 be
       0.6140263 0.21568227 0.21090434 -0.33059624
000260 bd 9d e0 be b9 41 e7 be b4 40 7a be 26 42 5c be
       -0.43870345 -0.4516733 -0.24438745 -0.21509609
000270 d5 11 ac be 3f 15 f9 3e cc a2 57 3c d6 eb 0d bf
       -0.33607355 0.48649022 0.013161372 -0.5543798
000280 19 0b 8e be c7 2c 73 3e 52 ad 17 bf b2 64 11 3f
       -0.27742842 0.2374755 -0.5924884 0.56794274
000290 25 96 ad 3e 61 66 b0 3e 9a 7c 2d bf 40 17 38 bf
       0.33903614 0.3445311 -0.6776825 -0.71910477
0002a0 2e 7f ab be 64 73 17 3e 4f 93 8f be 71 b1 24 3e
       -0.33495468 0.14790112 -0.28042075 0.16083314
0002b0 d2 bd 8f 3e 44 eb 68 be 58 4e dc be c1 29 26 bf
       0.2807451 -0.22745997 -0.43028522 -0.6490746
0002c0 bd 6a 60 3e bb 17 db 3e b2 38 10 bc 10 de 28 be
       0.21915717 0.42791542 -0.00880258 -0.1649096
0002d0 37 e1 17 be 04 b8 90 3f ed f2 2b be 03 2f af be
       -0.14832006 1.1306157 -0.16791888 -0.34215555
0002e0 25 76 a0 3e 33 07 bb 3e 60 f6 a7 3e 55 d6 db bd
       0.31340137 0.3652893 0.32805157 -0.1073424
0002f0 17 04 1d 3e 95 53 38 3f d5 eb 65 be da 3b b7 3e
       0.15333591 0.72002536 -0.22453244 0.3578785
000300 e0 a2 04 bf 09 83 8c 3e 7b 9f 01 bf c2 09 8f 3f
       -0.5181103 0.27443722 -0.5063397 1.1174853
000310 5b 06 f7 bd 56 44 e7 be 34 6f 3c be 6d 96 ad be
       -0.12061759 -0.45169324 -0.18401796 -0.33903828
000320 db 5a a1 3e 24 14 0d bf 8a a4 4a bf 71 af a0 be
       0.3151463 -0.5510886 -0.79157317 -0.3138385
000330 7e 84 f2 be d8 f8 30 be de c9 8a 3d 93 b5 a6 be
       -0.4736671 -0.17282426 0.06776784 -0.32560405
000340 e5 ec 2c bf b3 c9 89 be 1f 7e 8a 3f 48 6d 15 bf
       -0.6754897 -0.26911697 1.0819739 -0.58369875
000350 42 6d e8 be 19 c8 2e 3f d8 62 c2 be 54 f8 58 be
       -0.45395857 0.68274075 -0.37966037 -0.2118848
000360 4a 31 bf 39 7a 0b 13 be 09 f6 04 3f 95 8f a5 be
       0.00036467082 -0.14359847 0.5193792 -0.32336107
000370 08 c0 30 bf c2 31 29 bf 9d 69 96 3f 95 03 77 3e
       -0.69043016 -0.6609155 1.1750981 0.2412246
000380 63 1c e6 be f8 18 b2 be 70 df 18 bf 51 db 19 be
       -0.44943532 -0.34784675 -0.5971594 -0.15025069
000390 29 8b d0 bd af 7d 99 be 7f 1d f7 be 6c b8 fa be
       -0.10182793 -0.299787 -0.4826469 -0.48968828
0003a0 dc a5 99 be a3 76 d0 3e 77 41 31 3e a7 ce 0d 3f
       -0.30009353 0.40715513 0.17310129 0.5539345
0003b0 32 e8 e3 be 81 bb 0b 3f 75 5d df be fc ae 90 bc
       -0.44513088 0.54582983 -0.4362599 -0.017661564
0003c0 d0 d1 bc be 17 43 38 be ae 84 4b 3f e9 b3 b2 3e
       -0.36878824 -0.17994343 0.7949933 0.34902886
0003d0 23 25 13 3f b0 2a 89 3e e7 93 3a bd 48 e7 bd be
       0.5747854 0.2679038 -0.045551207 -0.37090516
0003e0 e4 82 13 bf ed c2 2f bf 50 c4 31 bf 07 5c 8d 3e
       -0.576216 -0.6865681 -0.69440174 0.27609274
0003f0 76 f4 80 3d 10 99 19 3e 8f da f0 bd 64 03 fb be
       0.06296627 0.14999795 -0.11760437 -0.49026024

lstm.bias_hh_l0 f4 [256]
000000 96 d6 1c bf b4 4b 7e be c9 71 8e be 0d 32 9e bd
       -0.6126493 -0.24833566 -0.27821186 -0.0772439
000010 ac ff a9 bd 19 55 85 be 61 f5 53 be 77 e4 9b be
       -0.08300719 -0.26041487 -0.20699073 -0.30447742
000020 6d 0d 02 3e 20 5a 5f be 4e 9b b6 be d8 e0 9a be
       0.12700434 -0.21811724 -0.35665363 -0.30249667
000030 f6 97 2f be 22 11 10 bf e6 18 ec 3e 1e 3f 04 bf
       -0.17147812 -0.5627614 0.46112746 -0.5165881
000040 a8 ff 58 be 63 38 86 be a6 ff bc 3e 6f b3 c0 be
       -0.21191275 -0.26214895 0.36913794 -0.37636897
000050 c0 29 ad be 16 9f 98 be 0d cb 73 be 49 17 70 be
       -0.33820915 -0.29808873 -0.23807926 -0.23446383
000060 fa f0 12 3c 17 30 cb 3e 38 74 3f be 68 aa 87 be
       0.008968586 0.39685127 -0.18696678 -0.26497197
000070 23 9d 91 be 4d 90 5c be ae 71 fa 3e f9 c5 15 3d
       -0.28440198 -0.21539421 0.48914856 0.036565755
000080 62 23 d5 be 8b e3 d3 be 0b 4b 68 3e 57 f8 55 bd
       -0.41628557 -0.4138454 0.22684877 -0.05223879
000090 00 7b e5 be 5e 7f 57 be 76 24 25 bf c9 b4 da be
       -0.44820404 -0.2104468 -0.6450876 -0.42716053
0000a0 62 bd 0d bf 80 14 45 3e dd 2e 3c 3e 60 40 b4 3d
       -0.553671 0.19246101 0.18377252 0.08801341
0000b0 5a b1 3f be 07 74 46 3e 1a f9 09 bf 89 3c b4 be
       -0.18719998 0.19380198 -0.53895724 -0.35202435
0000c0 26 4b 61 be 89 f3 d8 be d7 c6 87 3e d3 1a 6f 3e
       -0.22001323 -0.42373303 0.2651889 0.23350076
0000d0 b5 75 0f 3f 2f 98 a0 bd e1 a0 dc bd e8 63 0d bf
       0.5603898 -0.07841527 -0.10772873 -0.5523057
0000e0 05 38 9d be 88 7c 03 bf 3c 57 69 be 40 22 6d 3f
       -0.30706802 -0.51361895 -0.22787184 0.92630386
0000f0 6f 56 bd bd 84 99 a9 be c4 68 15 3a b4 ea c4 3c
       -0.092450015 -0.33124936 0.000569951 0.024037696
000100 33 fb 9c be 0e 97 89 be 6b 2a 04 bd d9 2f 20 bf
       -0.306604 -0.26873058 -0.032267015 -0.6257301
000110 31 34 2b be 9a a1 31 be a7 7c 50 be 11 85 77 3e
       -0.16719128 -0.17346802 -0.20360051 0.24171855
000120 81 08 07 bf 01 2d 38 be 48 a0 43 be d2 db 59 be
       -0.5274735 -0.17985918 -0.19104111 -0.21275261
000130 60 7d c7 bd 37 ed b1 be 18 19 09 bf fb bb 97 be
       -0.0974071 -0.34751293 -0.53553915 -0.29635605
000140 19 71 c2 bb 32 89 a3 be 4a 6a a9 be 80 46 aa bd
       -0.0059338924 -0.3194061 -0.33088905 -0.08314228
000150 90 8e 51 be 7a 9c 01 bf 0c 9c a6 be 7a c8 a2 be
       -0.2046454 -0.5062939 -0.3254093 -0.31793576
000160 e5 4f 17 bf 0c a7 e2 be 31 c4 ec be 30 30 90 be
       -0.59106284 -0.44268072 -0.46243432 -0.28161764
000170 35 fc 13 be e0 c0 8a 3d 3b ae 9c be 55 b0 bd be
       -0.14451678 0.06775069 -0.30601677 -0.37048593
000180 7d d6 d1 be b8 fd 4f be 6f 37 93 3e 99 64 c9 be
       -0.40983954 -0.2031163 0.2875323 -0.39334562
000190 21 6e 6d be 3f 95 95 be a5 3a 8c be d7 96 a8 be
       -0.23186542 -0.29215428 -0.27388492 -0.32927582
0001a0 d2 4d 8c be 94 6d ff be 60 3e dd be 1f a5 0a bf
       -0.27403122 -0.4988829 -0.4321165 -0.54158205
0001b0 82 56 82 be ff ff 1b bf e3 48 18 be 77 7e dc bd
       -0.25456625 -0.60937494 -0.14871554 -0.10766309
0001c0 d5 e6 a1 be 2d fc 92 3d 81 5f 0b bf 3f 5d df be
       -0.31621423 0.07177005 -0.544426 -0.4362583
0001d0 af 3a 98 be c6 d9 4f 3d 1b a0 c4 be 81 8f 54 be
       -0.29732272 0.050744794 -0.384034 -0.20757867
0001e0 d0 ab 21 bd cb 1d 53 be f2 38 b1 be 58 f6 ed be
       -0.039470494 -0.20616834 -0.34613758 -0.46477008
0001f0 39 bb 0b bf 37 f0 09 bd 34 38 9d be 3d f9 ce be
       -0.54582554 -0.033676352 -0.30706942 -0.4042453
000200 62 23 18 bf 49 a5 af bd 0c 40 ed 3e d5 71 07 be
       -0.5942899 -0.085764475 0.46337926 -0.13227017
000210 1f 23 d3 3e be 73 8f 3e 7b 90 3a 3f ee bd df be
       0.41237733 0.28017992 0.7287671 -0.43699592
000220 2f d6 3f 3f 4c 53 b4 be b2 de a9 3e 4d cd dc 3e
       0.74936193 -0.352198 0.33177716 0.43125382
000230 b4 07 cd be 2a 17 e1 be 88 99 8c be 51 93 9a 3e
       -0.4004494 -0.43962985 -0.27460885 0.30190518
000240 c1 2b c8 be c4 5f 45 bf 11 3e c1 be 5b 10 ee be
       -0.39095882 -0.7709925 -0.37742665 -0.46496853
000250 09 a2 1b 3f a5 6f 84 3e 73 57 67 3e 40 50 a5 be
       0.6079412 0.25866428 0.22591953 -0.32287788
000260 3c 1f 06 bf 51 14 cb be 81 1f 8e be 06 04 64 be
       -0.5239141 -0.39663938 -0.2775841 -0.2226716
000270 c8 5f ad be 60 7b eb 3e da 7e 08 bc 79 d8 12 bf
       -0.33862138 0.45992565 -0.008331025 -0.5736156
000280 47 7d a6 be 3b 7c 7a 3e 12 81 1d bf cf be 10 3f
       -0.32517454 0.24461453 -0.6152507 0.5654115
000290 56 ea ab 3e b0 05 c8 3e 0a 69 2a bf b6 fa 44 bf
       0.33577222 0.3906684 -0.66566527 -0.76945055
0002a0 1e 48 bc be a2 fb f4 3d 71 d1 40 be 3d 77 2e 3e
       -0.3677377 0.11962058 -0.18829896 0.17037673
0002b0 0c ba 8b 3e 38 d6 91 be 49 68 df be 3f 8a 2c bf
       0.2729038 -0.28483748 -0.4363425 -0.67398447
0002c0 a4 79 71 3e dc f6 d1 3e 53 00 77 3c 90 83 30 be
       0.23581558 0.4100865 0.015075761 -0.17237687
0002d0 0d fd 2d be 46 a8 7e 3f e9 33 59 be 32 08 9b be
       -0.16991062 0.99475515 -0.21211208 -0.3027969
0002e0 72 f5 a1 3e 04 ca c0 3e 14 69 ad 3e c9 3c 28 bd
       0.31632572 0.37654126 0.3386923 -0.041073594
0002f0 f3 19 35 3e 36 3c 3d 3f 2f 63 6c be bf 95 bc 3e
       0.1768568 0.7392 -0.2308471 0.36832997
000300 07 5a 04 bf 37 d9 8c 3e f3 9c fc be e1 0c 91 3f
       -0.5169987 0.27509472 -0.49338493 1.1332055
000310 ce 77 f8 bd e7 65 e3 be a8 69 38 be a4 63 ae be
       -0.12132226 -0.44413683 -0.18009055 -0.34060395
000320 d1 fe 9b 3e 12 17 0c bf 85 af 4b bf e5 9e a1 be
       0.30467847 -0.547227 -0.79564697 -0.3156654
000330 15 f3 f2 be db 9f 10 be 7c 67 60 3d ab e6 a7 be
       -0.47451082 -0.1412348 0.05478619 -0.32793173
000340 80 c0 2d bf 2d bf 82 be 71 39 8c 3f 39 3f 17 bf
       -0.67871857 -0.2553648 1.095503 -0.59080845
000350 fc 2a eb be 37 10 30 3f 78 83 c3 be 15 36 59 be
       -0.45931232 0.6877474 -0.3818624 -0.21212037
000360 09 51 b4 3c db a2 0c be dc 16 05 3f 87 8b a5 be
       0.022011297 -0.13734 0.51988006 -0.32333013
000370 91 5b 30 bf 09 52 27 bf c8 72 9c 3f db 00 7c 3e
       -0.6888972 -0.6535955 1.2222528 0.24609701
000380 68 cd e9 be 47 4c b1 be 53 21 1b bf 0b 0b 21 be
       -0.45664525 -0.34628507 -0.60597724 -0.15726869
000390 ec 23 d1 bd 4e d2 99 be 28 92 f7 be f0 8a f3 be
       -0.1021193 -0.30043262 -0.48353696 -0.47566938
0003a0 c8 5c 9b be ed 5b cc 3e a1 ff 34 3e df 88 0d 3f
       -0.30344224 0.39913884 0.1767564 0.55286974
0003b0 ae ea e3 be f5 8d 0b 3f ff 1e df be 3b 41 d6 bc
       -0.44514984 0.54513484 -0.43578336 -0.026154151
0003c0 00 7b c0 be fb 73 36 be e3 1b 4c 3f de c0 b3 3e
       -0.37593842 -0.1781768 0.7973005 0.35108083
0003d0 6f 93 13 3f 66 7e 8b 3e 78 a4 82 bd 0e 57 bc be
       0.5764684 0.27244872 -0.06379026 -0.36785167
0003e0 cc 44 13 bf a2 56 2e bf 2d 50 30 bf c4 74 8d 3e
       -0.5752685 -0.6810094 -0.6887234 0.27628148
0003f0 bb c9 87 3d f2 95 1b 3e 06 64 f1 bd 9c e9 f9 be
       0.06630274 0.15193918 -0.11786656 -0.48811042

lstm.weight_ih_l1 f4 [256, 64]
000000 65 76 10 3e 2e 08 2a 3d 92 2b bd bc b5 7b fd 3d
       0.14107664 0.041511707 -0.023092065 0.12377111
000010 95 9f c6 bd ac d3 30 3c 9e d1 8a bd 3d 79 31 be
       -0.096984066 0.010792654 -0.067782626 -0.17331405
000020 52 d0 58 bd fc 16 d4 3c f4 21 4c 3d 07 4b 83 3d
       -0.052933045 0.025889866 0.049837068 0.06410795
000030 a4 24 16 3c 92 04 0f 3e 1f fc 21 3e 9c 99 ef bc
       0.009164009 0.13966587 0.15818833 -0.029248051
000040 1c 28 09 bd ce b1 41 3e 37 8b 59 3d eb 98 91 3c
       -0.033485517 0.18915483 0.05311128 0.017773112
000050 14 c6 78 bd 20 27 ef bd a7 26 11 3d 6c 25 d3 3b
       -0.060735777 -0.116773844 0.035437252 0.00644367
000060 84 1a 52 3d 7a 15 9b 3e 87 d3 05 3e 79 d2 b3 3a
       0.05129482 0.30289823 0.13068973 0.0013719342
000070 65 7b 60 ba d9 e8 92 3d 93 bb 84 bd fb f1 31 3e
       -0.0008563309 0.071733184 -0.064810894 0.17377464
000080 e9 6c e7 3d 0c 47 5a bc 6c 18 ee bd 45 f9 b3 bd
       0.1130007 -0.013322603 -0.11625752 -0.08787779
000090 1f 49 90 bd 7d b7 a5 bd 66 c2 90 3d 42 d8 ad 3d
       -0.07045197 -0.08091638 0.070683286 0.084885135
0000a0 ae f9 2d 3d 02 99 4c be 2f 4f 0e 3e 88 f7 56 bd
       0.04247444 -0.19980243 0.13897394 -0.052482158
0000b0 db 4a 26 3c 51 10 d7 3b 77 6e 07 3d eb 1b bc 3b
       0.010149683 0.0065632244 0.03306433 0.005740633
0000c0 b4 78 f6 bd 0a 43 d8 bc 9b ff 45 3e 9e c2 3d be
       -0.12034741 -0.026399154 0.19335787 -0.18531272
0000d0 e5 ed 65 3e b6 14 70 3d 81 95 d6 3c 4b 8e f1 3d
       0.22454031 0.0586135 0.026194336 0.11794718
0000e0 6e 02 07 bd c8 5a 0e 3c fa ae 24 3c 2d 0b 9e 3d
       -0.0329613 0.008688636 0.010051483 0.07716975
0000f0 19 2f f9 bd 97 13 b3 3c 3a 5b aa 3d bc 07 f6 bd
       -0.12167186 0.021859927 0.08318181 -0.12013194
000100 ce 76 2f 3d f8 0e c4 3d 5d b9 04 be 72 ea 2a 3e
       0.04283791 0.095731676 -0.12961335 0.16690996
000110 a4 d0 b8 bd 49 59 0a be 87 3f 22 bb c3 a9 91 3d
       -0.0902417 -0.13510622 -0.0024757104 0.071124576
000120 1c 60 98 3d a7 30 a3 3d bf f9 99 bc 81 9b 00 3d
       0.074402064 0.07968264 -0.018795846 0.0313983
000130 38 00 e7 3d 6f 8b 5f 3d 04 d2 e7 3d 2b 62 35 bd
       0.112793386 0.054576334 0.11319354 -0.044283073
000140 14 10 82 3d 68 4e 4c 3e ba 5c 69 bd 7c 16 56 3b
       0.06350723 0.19951785 -0.056973197 0.003266721
000150 c4 38 28 bc 7b bf 0c bd 72 e9 da bb bc c5 cf bc
       -0.01026744 -0.034362298 -0.006680661 -0.025362842
000160 27 cc c6 3d d6 cc 3b 3e 7d aa 1e 3e 0d b1 21 3d
       0.09706908 0.18339857 0.15494724 0.03947549
000170 8e 04 48 3d a1 8a 59 bd b3 03 43 be 77 56 05 3e
       0.04883247 -0.053110722 -0.1904438 0.13021265
000180 93 39 f7 bb 5a 89 98 bd 77 1b 36 3e 1f 01 c9 bd
       -0.007544705 -0.07448073 0.17783915 -0.09814667
000190 e8 62 82 bd 85 10 0a bd fa 24 f7 3d 7d e4 21 3e
       -0.06366521 -0.03370716 0.120675996 0.15809818
0001a0 3f f7 5c bc f4 ae 87 bc 93 67 90 3d 15 63 f9 bb
       -0.013486682 -0.016562916 0.07051005 -0.0076106885
0001b0 7a cb 60 bd dc 7a 93 3c 25 bf 32 3d 39 6e 67 3e
       -0.05488155 0.01800292 0.04363932 0.2260064
0001c0 dc 95 fc bd e8 7a f7 bd 8d ae 47 3e 2e 0c 77 be
       -0.12333271 -0.120839894 0.1950018 -0.2412574
0001d0 0a 36 03 3e 2d 16 73 bd 40 b3 b6 3d 41 81 0b bd
       0.12813583 -0.05934732 0.08920908 -0.034058813
0001e0 34 f0 d2 bd ba 85 91 3c a2 44 63 bd bf a0 f4 3c
       -0.10299721 0.017763961 -0.055485375 0.029861806
0001f0 40 57 bb bd 84 a0 4e 3d a7 83 24 3e a4 16 9d bd
       -0.09147501 0.05044605 0.16065846 -0.07670334
000200 ad bd 2c 3e 0e 9c 81 be 94 d3 3b 3c c5 15 69 3e
       0.1686923 -0.25314373 0.011464018 0.2276221
000210 cb 86 d7 bd 5e 8a db 3c fb cf da be fd 93 22 3e
       -0.105237566 0.026799377 -0.42736802 0.15876766
000220 07 aa 4c be 4d 4e b1 bd 4d 3f 15 be 7e 3a 44 be
       -0.19986735 -0.08657513 -0.14574929 -0.19162938
000230 e1 2c 35 bd e4 14 0e 3e ae ce 72 be 79 c0 a2 3c
       -0.044232253 0.13875157 -0.23711655 0.019867169
000240 7a cb 20 3d 59 fe 47 3e d9 8c d1 3e 8b 33 f6 3b
       0.03925655 0.1953062 0.4092777 0.0075134686
000250 09 7e 5c be e8 5f 0f 3e 67 70 a8 bd 13 94 d9 bd
       -0.21532454 0.14001429 -0.08224564 -0.10623946
000260 f4 24 a5 3b 48 9d 2e 3e 41 1a 9b 3b ab 35 b0 3d
       0.0050398055 0.17052186 0.0047333543 0.08603986
000270 9f 44 e7 3c ab 25 41 3d 07 00 a5 3e d1 28 80 3e
       0.028230963 0.047155064 0.32226583 0.2503114
000280 6b 30 80 3e 0f 3c 89 3b dd 9d 57 3e 98 6f 19 be
       0.2503694 0.0041880677 0.21056314 -0.14983976
000290 ae f1 f8 3d 8a 90 2c 3e 63 55 f0 3e f4 9e e9 3e
       0.12155472 0.16852012 0.46940145 0.45629084
0002a0 3b 16 ce 3d 1f aa 71 bd 48 54 86 3e 37 71 56 bd
       0.10062834 -0.05900013 0.26236176 -0.052354064
0002b0 08 56 d6 bd 03 59 7b 3d 1d c9 1a bd 26 7d d6 3e
       -0.10465628 0.061364185 -0.037789453 0.41892356
0002c0 2d 55 13 bd 14 d8 68 be d2 20 3a 3e 6f e4 d8 be
       -0.0359699 -0.22738677 0.18176582 -0.4236178
0002d0 79 fa 07 3e 33 9c ce be e6 9e 71 3d 2a c3 04 3e
       0.13279141 -0.40353546 0.058989428 0.12965074
0002e0 25 1a 21 be b1 39 38 be 80 b3 de 3d fd 3d 64 3d
       -0.1573263 -0.17990758 0.10874081 0.05572318
0002f0 58 85 ad be 46 c0 68 3b 8a e8 6c 3d 1c 2d e8 bd
       -0.33890796 0.0035514995 0.057838954 -0.11336729
000300 4b 98 36 3e ca f0 de bd 4e 25 52 3d fa 91 14 3e
       0.17831533 -0.108857706 0.051305108 0.1450881
000310 18 fd 56 be 60 8f 7b 3c de 83 88 bd 58 bb 6a 3c
       -0.20994985 0.0153540075 -0.06665777 0.014326893
000320 f4 fb d6 bc 9e 01 c7 3c 61 cc 86 bd b7 88 37 3d
       -0.026243187 0.024292763 -0.06581951 0.044808116
000330 e6 98 b6 3d 6c 80 2e 3e c1 62 c6 bb 0f 96 0b bd
       0.08915882 0.17041177 -0.006054253 -0.034078654
000340 b5 e8 85 3d 65 98 e3 3d 1b b7 b0 3e 22 08 47 3d
       0.06538526 0.11113051 0.34514698 0.04859174
000350 48 e4 14 be 69 f9 13 bc 8f a2 5a bc c3 8f 1c 3d
       -0.14540207 -0.009031632 -0.013344421 0.03822304
000360 c2 21 8f 3d ce 28 6d 3e 7a cf 02 3d 8b 84 e6 3d
       0.06988861 0.23160097 0.031936146 0.11255749
000370 2d f6 e7 bc 9f dc 68 3c 2f 68 8d 3e ea 62 e6 3d
       -0.028315628 0.014212756 0.27618548 0.11249335
000380 c4 e7 7d 3d 50 01 33 bd fd a5 8b bd 9f 20 1b be
       0.061988607 -0.043702424 -0.06818769 -0.15149163
000390 62 49 98 bd a2 07 ad bd 30 79 11 3e 6c bf 20 3e
       -0.07435872 -0.084487215 0.14206386 0.15698022
0003a0 f6 c5 86 3c 29 d2 40 be 22 09 af bc 5c ef 3f 3e
       0.016451817 -0.1883017 -0.02136666 0.18743652
0003b0 0b 19 30 3d ac 77 93 bd 29 56 8b 3d 82 9a 22 3e
       0.042992633 -0.0720056 0.06803543 0.15879253
0003c0 d9 9f 95 bc 03 e3 8e bd 3d 3b 82 3d da 49 73 be
       -0.018264698 -0.06976893 0.06358955 -0.23758641
0003d0 ea 0b 13 3e 85 4d 18 be b8 a0 d9 3c 8f fc f2 3d
       0.14360014 -0.14873321 0.026565894 0.11864578
0003e0 31 85 f4 bd 57 e5 28 be c6 12 65 bd 17 65 66 3e
       -0.11939467 -0.16493736 -0.055926107 0.224995
0003f0 ae fd 6c 3d 0a e1 4f bd 96 31 19 3e c7 e3 97 bd
       0.057859115 -0.050751723 0.14960322 -0.07416492

lstm.weight_hh_l1 f4 [256, 64]
000000 83 08 42 bd 0c aa 69 3d b6 14 fc bd 10 6b 42 3c
       -0.0473714 0.057046935 -0.12308638 0.011866346
000010 44 05 4e 3d 65 72 63 3d b5 09 b7 3d 84 d7 25 3d
       0.05029799 0.055529017 0.08937398 0.040488735
000020 fd 98 a0 bd 47 ad 46 3d 30 41 fc 3c 77 8a 81 bd
       -0.0784168 0.048505094 0.030792803 -0.06325238
000030 dd 67 05 3b b7 b6 dc bc b9 f8 da bc 6e a3 f5 bc
       0.0020356097 -0.026942594 -0.026729928 -0.029985156
000040 db 98 d8 3c 2f d8 8b 3c 85 7f 18 3d 14 4c 26 3d
       0.026440075 0.017070858 0.037230987 0.040599898
000050 dd f2 4b 3c 97 54 b7 bc 39 50 01 be 97 a3 7f bd
       0.01244804 -0.022379203 -0.12628259 -0.06241187
000060 80 48 04 3d c0 89 94 3c f4 67 86 bc d2 1a 1b 3d
       0.032295704 0.01813209 -0.01640699 0.037867375
000070 e9 90 9d bc 83 d5 91 bd f8 b8 28 bd f3 03 7c 3d
       -0.019234138 -0.07120802 -0.041192025 0.061527204
000080 11 74 96 bc d4 5b 19 bd c8 47 72 3d 8e 9d 2d 3d
       -0.018365892 -0.03744109 0.059150487 0.042386584
000090 1a a8 2f 3d 3b ca 01 3d 1c 7d 9c bd f0 3d 3b bd
       0.042884924 0.031687003 -0.0764105 -0.045713365
0000a0 b1 f0 81 3c 53 22 6c bc f6 00 5d 3d 2c 30 0f bd
       0.01586184 -0.01441248 0.053955995 -0.03495805
0000b0 ca 82 35 bd 45 51 b8 3c d8 b9 bf bc 0e e2 32 3c
       -0.044314183 0.02249969 -0.023404047 0.010918153
0000c0 91 82 45 bd 9b 91 2b 3d 90 03 04 bd 81 4e 54 3d
       -0.04822022 0.041886907 -0.03222996 0.05183268
0000d0 ce 6b 6f bd d1 09 f3 bc bd 0e 68 bc 26 e6 1a bd
       -0.05845242 -0.029667767 -0.01416367 -0.037817143
0000e0 a2 1a b3 bc 05 00 3a 3d e0 8e 25 3d b5 48 9d bd
       -0.021863285 0.045410175 0.04041946 -0.076798834
0000f0 35 c2 8b 3d 8d 70 02 3d 6b 6f 69 bd 49 be 4f bd
       0.068241514 0.031845618 -0.056991022 -0.05071858
000100 22 04 29 bc ca d3 c3 3c b7 dc 9b bc d7 eb 98 bc
       -0.010315927 0.0239047 -0.019026143 -0.018667145
000110 d7 f4 87 bc 17 fd 94 3c 06 d0 77 3c 64 e8 fb bb
       -0.01659624 0.018187089 0.01512528 -0.007687615
000120 f0 d6 0e bc f9 19 0e 3b 7f 02 8b bb 29 47 7e bc
       -0.008718237 0.0021682961 -0.004242241 -0.015519896
000130 92 92 76 bb fd 53 2e 3d 30 cb 86 3c c7 54 0c 3c
       -0.0037623984 0.042560566 0.01645431 0.008565134
000140 03 a5 75 bc 67 6d 06 bc 5b 5a 89 3b 2b f1 21 b9
       -0.014992955 -0.0082047945 0.0041916794 -0.00015443999
000150 db 1e 00 3a 38 6c d6 3c 17 9a d8 bd f3 6a f6 bc
       0.00048874103 0.02617465 -0.10576265 -0.030080294
000160 2d 0f 1a bc 2d df 97 3b c6 7a c6 bc 31 71 04 bc
       -0.009403032 0.004634759 -0.024228465 -0.008083628
000170 2c 39 aa bc f4 bc 9f bc 18 b6 65 3c d0 b2 e0 3b
       -0.020779215 -0.01949928 0.014020465 0.0068572536
000180 8d 29 a1 3c 39 d8 dd 3c 17 dc bd 3c 68 c0 e8 bc
       0.019673133 0.027080642 0.023176236 -0.028412059
000190 0f 9d d4 bb 0c cc 45 3c 50 9c 0f bd 7d 42 85 bc
       -0.0064884494 0.012072574 -0.03506118 -0.016267056
0001a0 09 14 f6 bc 8b ed 80 3c ae da 08 3b cc 0a 57 3c
       -0.03003885 0.01573827 0.0020882296 0.013125133
0001b0 91 a3 05 3b a7 75 cf 3c 27 6b 56 bb 7b e0 ca bc
       0.0020391683 0.025324656 -0.0032717676 -0.024765244
0001c0 6e 3e 91 3b 3f ba 68 bc 8a 6f 2e bc 13 bc 16 3c
       0.004432491 -0.014204561 -0.01064671 0.009200114
0001d0 4d ec 26 bb 41 fd 2f 3c be bf a6 bc fb b3 c0 bc
       -0.0025470436 0.010741533 -0.020355102 -0.023523321
0001e0 bb 69 49 bc 6e d9 e9 3b 8d 4a 6a bb a7 d4 1a bd
       -0.0122932745 0.0071365153 -0.0035750002 -0.037800457
0001f0 1e 60 3a 3c 68 80 b0 3b 8e 3a 81 bc c1 69 07 3b
       0.011375455 0.005386401 -0.015774991 0.00206624
000200 4c 60 14 be 3b 8e 1d 3e 59 dc 8a be c1 c8 42 be
       -0.1448986 0.15386288 -0.27121237 -0.19021894
000210 e1 3c 8a 3d bf ea 04 3e 8b f5 4d 3e 73 88 08 3e
       0.06749893 0.12980174 0.20113198 0.13333301
000220 d5 9e 32 be d4 70 15 3e a7 ae 0c 3e ae b6 87 be
       -0.17443402 0.14593822 0.137385 -0.2650656
000230 ec 62 f6 3d 3c 7d ea bd 42 00 1a be f8 84 c4 bd
       0.120305866 -0.11449668 -0.15039161 -0.09595674
000240 d9 d1 ff 3d 48 ff c9 3d 8c c5 e2 3d ee 32 09 3e
       0.12491197 0.09863144 0.11072835 0.13398334
000250 79 48 09 3e 14 9a 0a be d1 d1 8f be b8 5f 60 be
       0.13406552 -0.13535339 -0.28089765 -0.21911514
000260 ad 19 29 3e 4a 40 43 3e f4 d8 51 be 49 5f 30 3e
       0.16513701 0.19067493 -0.20492917 0.17223848
000270 89 9a 41 be 79 0d 0f be 83 38 2c be 87 91 df 3d
       -0.18906607 -0.13969983 -0.16818433 0.10916429
000280 3f ac 33 be 80 51 0d be e7 39 3e 3e 62 f2 03 be
       -0.17546175 -0.13800621 0.18576775 -0.1288543
000290 73 a0 11 3e 52 6f 51 3e b6 4e 4a be 54 ef 35 be
       0.14221363 0.20452622 -0.19756588 -0.17767078
0002a0 b5 0c b5 3d 2f ec 0e be 44 85 0c 3e f7 2e 60 be
       0.08840314 -0.13957284 0.13722712 -0.21892916
0002b0 6a 8a 0a be 6b 6e 1d 3e 8b 46 46 be 1a d7 0d 3e
       -0.13529363 0.15374152 -0.19362848 0.13851586
0002c0 0e f7 46 be 84 01 26 3e 7e 88 19 be af 20 18 3e
       -0.19430181 0.16211516 -0.14993474 0.14856218
0002d0 56 84 4b be e9 22 1b be 5b bd 0c be 00 77 1f be
       -0.19874701 -0.15150036 -0.13744108 -0.15572739
0002e0 bf aa 44 be 57 e1 c8 3d b0 af 4b 3e c5 28 03 be
       -0.1920576 0.09808605 0.19891238 -0.12808521
0002f0 88 22 20 3e 73 c3 05 3e b7 88 1d be c5 fa 1d be
       0.15638173 0.13062839 -0.15384184 -0.15427692
000300 23 19 da bd fb e2 bc 3d e0 2a bf bd 55 27 95 be
       -0.10649326 0.092229806 -0.0933435 -0.2913157
000310 18 13 63 3d e3 b5 94 3d 82 a3 06 3e 66 3c bb 3d
       0.05543813 0.07261255 0.13148311 0.091423795
000320 5b a2 08 be 38 65 c8 3d 2b 82 4b 3d b8 54 d8 bd
       -0.13343184 0.09784931 0.049684685 -0.10563034
000330 2a f3 2b 3d 81 56 ac bd 58 32 15 bd f0 e3 73 3e
       0.041979946 -0.08414937 -0.036424965 0.2381742
000340 22 c6 d5 3c ce 21 cf 3d 7b 8c 4e 3d 63 11 34 3d
       0.026095454 0.101138696 0.05042694 0.043961894
000350 1b 66 31 3d e7 c3 5e bd b5 97 74 be 59 33 9b bd
       0.043310266 -0.054386046 -0.23885997 -0.07578153
000360 4b ec bf 3d 5f 06 ec 3c 77 54 92 bd 6d b1 05 3e
       0.09371241 0.028811632 -0.07145017 0.13055964
000370 31 a6 2c 3b b7 fa 00 be b1 40 76 bd c5 c1 e3 3d
       0.0026344175 -0.1259564 -0.06012029 0.11120943
000380 f6 c1 93 bd c9 04 b4 bc 8a 18 37 3e 0b f0 7b bd
       -0.072147295 -0.021974938 0.17880455 -0.06150822
000390 5e 1e b7 3d 6b 07 d5 3d 51 78 8c bd 08 b9 be bd
       0.08941339 0.104018055 -0.06858886 -0.09312636
0003a0 fb 18 4b 3d e6 9a 96 bd 38 72 e7 3d 32 1e 8c bd
       0.04958437 -0.07353763 0.113010824 -0.06841697
0003b0 c9 b0 ba bc 8c 1c 7f 3d ad 36 1d be 75 1f 8a 3d
       -0.022789376 0.062283084 -0.15352888 0.06744281
0003c0 56 2a c8 bc 7b a3 8a 3d 99 73 97 bd cc 82 a6 3d
       -0.02443425 0.06769463 -0.073950954 0.08130416
0003d0 9a e9 b6 bd e2 e5 cb bd 10 8b ba bd ef 04 cd bd
       -0.08931275 -0.09955956 -0.09108555 -0.10010707
0003e0 5e 24 cf bd e4 23 d4 3d 0c c3 98 3d bf ed dc bd
       -0.10114358 0.10358408 0.07459077 -0.10787534
0003f0 81 1c 99 3d fb f0 f8 3d aa cd 03 be 79 d0 ce bd
       0.0747614 0.121553384 -0.12871423 -0.10098357

lstm.bias_ih_l1 f4 [256]
000000 fb a9 50 be 05 02 68 be 55 ad 0e bf 89 07 29 bf
       -0.20377342 -0.2265702 -0.55733234 -0.6602712
000010 a9 72 9b be 89 86 10 bf 84 62 a5 be 8a 20 1e bf
       -0.30360916 -0.56455284 -0.32301724 -0.617684
000020 93 b3 04 bf e7 d3 60 be 48 35 37 be 54 da d9 be
       -0.5183651 -0.21955834 -0.17891419 -0.42549384
000030 b0 9a 20 bf 60 8b 5b be b6 c9 7b be bc c6 49 bf
       -0.62736034 -0.21439886 -0.24588665 -0.7881887
000040 94 b8 92 be 7a 6e 75 be a1 5d 3b be 50 64 3a be
       -0.28656447 -0.23967925 -0.18297435 -0.18202329
000050 e3 45 9d be 97 e3 0a bf 18 8e e6 be 6d 26 b4 be
       -0.30717382 -0.54253525 -0.45030284 -0.35185567
000060 e0 c7 a3 be 89 ea 10 bf 8e b7 c6 be 80 d0 96 be
       -0.3198843 -0.5660787 -0.38811916 -0.29455948
000070 2c be 1a bf 5b f4 cc be b7 5b ab be 29 6c b5 be
       -0.6044643 -0.40030178 -0.3346841 -0.35434082
000080 82 44 17 bf e4 95 a9 be 1d f8 f1 be 08 9b 36 bf
       -0.5908891 -0.3312217 -0.47259608 -0.7133031
000090 ad 9e 92 be 34 0e f4 be 03 a2 11 bf 8f a0 d4 be
       -0.28636685 -0.47667086 -0.56887835 -0.41528746
0000a0 e4 1c 90 be 40 6e 1b be 4e be f5 be 44 dc 22 bf
       -0.28147042 -0.15178776 -0.47996753 -0.6361735
0000b0 7f bc 8e be 74 6c d8 be 99 74 2c bf 3b 7d 9a be
       -0.27878186 -0.42270243 -0.67365414 -0.30173668
0000c0 bd de 35 bf c2 2c 3d be 2f 68 8d be 74 d3 96 be
       -0.71042997 -0.18474105 -0.27618548 -0.294582
0000d0 a7 6c d2 be 2b 67 78 be 71 df 34 bf 74 2a 0e bf
       -0.4109852 -0.24258105 -0.70653445 -0.5553353
0000e0 d6 fb 1a bf 7c 16 84 be 26 3a 21 bf 4d 77 07 bf
       -0.6054052 -0.25798404 -0.6297935 -0.52916414
0000f0 ce 1b 62 be 5d 4a e1 be ca 90 9e be 8f f0 e0 be
       -0.22080919 -0.44002047 -0.3096984 -0.43933532
000100 87 d9 3b be c6 89 34 be 45 89 6b 3f 30 3f 25 be
       -0.18344699 -0.17630681 0.9200633 -0.16137385
000110 aa 30 12 be cf 67 5a be a2 f1 8d be a7 eb 96 be
       -0.14276376 -0.21328662 -0.27723414 -0.29476663
000120 6b 00 6e be 9c c3 c3 bd c0 fc 2d be 74 4f 9c be
       -0.23242347 -0.09558794 -0.16990948 -0.30529368
000130 eb 96 c7 3d 16 a7 f8 bd 94 63 45 be 51 b5 9d 3f
       0.09745582 -0.12141244 -0.19276267 1.2320958
000140 27 22 74 be 4d 0b 33 3d d0 7d db bd a8 2b a4 3c
       -0.23841153 0.04371195 -0.10717356 0.020040348
000150 df 88 6e ba 18 b6 a1 bd af 9a cb be 8d 3f 3e be
       -0.0009099375 -0.0789606 -0.39766452 -0.1857893
000160 e7 62 3f 3a 62 54 36 3c 0b a6 4d be 6f 2b 9e be
       0.00073008094 0.011128517 -0.20082872 -0.30892512
000170 11 d9 78 be 1f ff c4 be 28 82 39 be 83 16 95 bd
       -0.24301554 -0.38475892 -0.18116057 -0.072796844
000180 65 13 bb bd 6a e8 29 be e0 e9 54 be e8 da 7b be
       -0.091345586 -0.16592565 -0.20792341 -0.24595225
000190 8f 8b 40 be 4d a2 1c 3e 03 fc 00 be 4c ea 63 bd
       -0.18803237 0.15296288 -0.12596135 -0.055643365
0001a0 50 48 e2 bd e8 af 91 be 43 80 8e be 72 3f 9c 3c
       -0.11048949 -0.28454518 -0.2783223 0.019073222
0001b0 cb 26 3a bd 96 96 36 3d 3d 28 aa bd 25 b7 8c be
       -0.045447152 0.044577204 -0.08308456 -0.27483478
0001c0 fc fb a7 bc 3b 4c 17 be 73 08 60 be c7 4c 8a 3d
       -0.020505898 -0.14775173 -0.21878223 0.06752925
0001d0 32 f0 68 be ec 73 08 be c2 86 bd bd fd 00 87 be
       -0.22747877 -0.1332547 -0.09254219 -0.26367941
0001e0 e2 21 75 be 0e 6a 30 be f0 69 2e be 4d 15 08 be
       -0.23938707 -0.17227957 -0.170326 -0.13289376
0001f0 ca 74 92 be 47 6a a3 be 33 62 82 be e8 a3 de 3d
       -0.28604728 -0.3191702 -0.25465545 0.108711064
000200 68 04 20 3e 7a 85 40 be b7 dd f0 3d 45 1d f3 3d
       0.15626681 -0.18800917 0.11761039 0.11870817
000210 3c 28 aa bd a7 20 bd bd bd d2 02 be e6 98 0b be
       -0.08308455 -0.092347436 -0.12775703 -0.13632545
000220 6a fc a1 3d 06 ae 14 be ee 22 c9 bd 56 77 ec 3d
       0.07909472 -0.1451951 -0.098211154 0.11546199
000230 62 df 32 be fe d0 da 3d ed 8e 1c 3e 0c 14 cf 3e
       -0.17468026 0.10684393 0.15288897 0.40444982
000240 66 42 96 bc 34 47 f2 bd 80 38 b2 bd 0a 73 f4 bd
       -0.018342208 -0.11829987 -0.08702183 -0.119360045
000250 82 98 99 bd 62 58 c0 3d 1d 8f 6a 3e 8f 92 bc 3d
       -0.07499792 0.09391858 0.22906156 0.09207641
000260 fa 27 cb bd 89 d3 aa bd b1 b3 3b 3d 1a 58 1c be
       -0.09919734 -0.083411284 0.045825664 -0.15267983
000270 8c 13 56 3e 8c 2c 46 3e fa 1b 51 3d b6 13 05 be
       0.20905894 0.19352931 0.05105207 -0.129958
000280 37 6f d3 3d f9 a7 87 3d 86 37 3f be 83 c5 25 3e
       0.10323947 0.06623835 -0.18673524 0.16188626
000290 09 4b 96 bd b2 44 c0 bd 37 2c 25 3e ff bc 01 3e
       -0.073385306 -0.093881026 0.16130148 0.12669753
0002a0 54 4b 6f bd b9 36 e4 3d e4 32 07 be 50 11 9e 3d
       -0.058421448 0.1114325 -0.13203007 0.07718146
0002b0 47 19 70 3d 83 e0 d2 bd 7d 18 d0 3d 61 61 a4 bd
       0.058617856 -0.102967285 0.10160921 -0.08026386
0002c0 55 fb a1 3d 81 9c ca bd f0 75 19 3e 29 7b 0b be
       0.07909266 -0.09893132 0.14986396 -0.136212
0002d0 d2 46 ee 3d af 7d 29 3e 54 d6 f9 3d 29 be ec 3d
       0.11634602 0.1655185 0.12199083 0.11559708
0002e0 5a c9 e4 3d 9e cd 04 be f1 db 97 bd 28 7f c4 3d
       0.11171217 -0.12969062 -0.07414997 0.09594566
0002f0 4b d5 28 be 93 32 e0 bd a2 fb 03 3e e6 a1 eb 3d
       -0.16487615 -0.10947146 0.12888959 0.11505489
000300 ae 5e 0c bf 70 04 01 bf a7 53 11 3e 46 75 4d bd
       -0.5483197 -0.50397396 0.14192067 -0.05016067
000310 4c 3d 02 bf c1 59 d3 bd e3 05 6f be 04 8a 03 be
       -0.5087478 -0.103198536 -0.2334209 -0.12845618
000320 b0 2f 9e be e1 55 03 bf 7d ff 06 bf 66 86 c2 3c
       -0.30895758 -0.51302916 -0.52733594 0.023745727
000330 01 c8 b5 be b5 cd 20 bf 49 1e 04 bf 8b 22 4a be
       -0.35504153 -0.62813884 -0.5160871 -0.1973974
000340 a4 24 23 bf af f6 20 bf fc 63 11 bf bf 06 22 bf
       -0.63727784 -0.6287641 -0.5679319 -0.63291544
000350 a5 fa 27 bf 7d 68 c6 be f2 bf 24 bd fb df c5 be
       -0.6561683 -0.38751593 -0.040222116 -0.38647446
000360 8f 39 16 bf b3 33 b4 be 74 2e da be dc 93 99 be
       -0.5868158 -0.35195693 -0.42613566 -0.2999562
000370 b7 80 c0 3d 5f 61 ed bd 2b 42 13 bf fe 1f c3 be
       0.093995504 -0.11590838 -0.5752284 -0.38110346
000380 71 95 1c be fa 4b 18 bf 91 de 2a be 18 78 d4 3d
       -0.15291382 -0.5949093 -0.16686465 0.103744686
000390 e5 ef 0d bf fb 7b 06 bf 7c fb 62 3d 43 9b b6 be
       -0.55444175 -0.5253293 0.055415615 -0.3566533
0003a0 11 bb 23 bf 90 65 13 bf f5 12 8d be 93 db 84 be
       -0.63957316 -0.5757685 -0.27553526 -0.25948772
0003b0 a5 66 16 bf 76 84 10 bf c5 e6 2d be c3 f7 d7 be
       -0.58750373 -0.5645212 -0.16982563 -0.42181215
0003c0 22 ca bf bd a2 73 0a bf 6d 47 0b bf 41 78 16 bf
       -0.09364726 -0.5408269 -0.5440586 -0.5877724
0003d0 2f bb 82 be ae 95 ea be 68 d6 1d bb 88 67 d7 bd
       -0.25533435 -0.45817322 -0.0024084095 -0.10517794
0003e0 5a 6a c9 3c f9 2b 03 bf ff 95 10 be 40 46 11 be
       0.024586845 -0.5123897 -0.14119719 -0.14186954
0003f0 52 f0 d5 be 42 ea 81 be 93 77 c5 be f7 10 b6 be
       -0.41784912 -0.25374037 -0.3856779 -0.35559818
