best_tcn_model.pth (torch, 287922 bytes, 15 tensors)

network.0.conv1.weight f4 [64, 33, 3]
0	0x3d9d6de4	0.076869756
1	0x3dbafe00	0.09130478
2	0x3dcb3346	0.09921889
3	0xbd229f45	-0.039702673
4	0xbcb59992	-0.022167955
5	0xbd00c1f9	-0.031434987
6	0xbd3ead68	-0.04655209
7	0xbdc5721b	-0.096409045
8	0xbd91bc77	-0.07116025
9	0x3db09a4d	0.086231805
10	0x3cf0ef17	0.029410882
11	0x3d842416	0.06452195
12	0xbd496146	-0.049165033
13	0xbd9738cd	-0.07383881
14	0xbdacc71a	-0.08436413
15	0xbcad11c2	-0.021126632
16	0xbcf82c08	-0.030294433
17	0xbd15a3ba	-0.036533095
18	0x3c0ad7f7	0.008474342
19	0x3b2d40af	0.002643626
20	0xbafb1b3d	-0.0019157898
21	0xbd271802	-0.04079438
22	0xbd230cb9	-0.039807055
23	0xbd1fed53	-0.03904469
24	0xbbbbd415	-0.0057320693
25	0xbbb7c214	-0.0056078527
26	0xbbb336c5	-0.0054691755
27	0xbbf247aa	-0.007393797
28	0xbbea8498	-0.0071569197
29	0xbbe46b51	-0.006970801
30	0xbc29f7ea	-0.010374049
31	0xbc28dee7	-0.01030705
32	0xbc27a1d6	-0.010231456
33	0x3d1d3bb0	0.038387
34	0x3d238cbf	0.039929148
35	0x3d24f4d7	0.04027256
36	0xbd3e72d2	-0.04649622
37	0xbd3a55df	-0.04549205
38	0xbd3c32e7	-0.04594698
39	0xbbbdcfa9	-0.0057925773
40	0xbc002aa4	-0.007822666
41	0xbc204320	-0.009781629
42	0x3d4a9f42	0.049468286
43	0x3d4f09f5	0.050546605
44	0x3d4c724a	0.049913682
45	0x3cc9374f	0.024562506
46	0x3cc4449f	0.023958502
47	0x3cc2095d	0.023686105
48	0xbd105b80	-0.03524351
49	0xbd10189d	-0.035179723
50	0xbd0fb2d6	-0.03508266
51	0xbcc65612	-0.024210963
52	0xbd82fb1e	-0.06395553
53	0xbd5c1222	-0.05372823
54	0xbd1f7dc2	-0.03893829
55	0xbd627fa1	-0.055297498
56	0xbdd4c635	-0.103893675
57	0xbd9c4045	-0.07629446
58	0xbd1d226a	-0.038362898
59	0xbd625ea7	-0.05526605
60	0xbd306e35	-0.04307385
61	0xbd9abc07	-0.075553946
62	0xbd1cccd0	-0.038281262
63	0xbbb2ce83	-0.005456747
64	0x3acb45b9	0.001550845
65	0xbc03826d	-0.008026701
66	0x3d8cc335	0.0687317
67	0x3d31e6c0	0.04343295
68	0x3c6008c4	0.013673965
69	0x3bdaaf82	0.006673754
70	0x3bc2fe58	0.0059507303
71	0x3ce3c725	0.02780492
72	0xbd64eea0	-0.055891633
73	0xbd8628af	-0.065507285
74	0xbdae8055	-0.08520571
75	0xbd3747ec	-0.044746324
76	0xbdba4210	-0.09094632
77	0xbd2389f4	-0.039926484
78	0xbd02db7f	-0.03194761
79	0xbd56402c	-0.052307293
80	0xbd8dbea3	-0.06921127
81	0x3d342fc4	0.043990865
82	0x3d2009df	0.039071914
83	0x3c8e2933	0.01735363
84	0xb9794803	-0.00023773317
85	0xbc2fab06	-0.0107219275
86	0xbca09111	-0.019600423
87	0x3d5f3d46	0.054501794
88	0x3d4d3543	0.050099622
89	0x3d4a8525	0.049443383
90	0x3c863080	0.016380548
91	0x3c594d1c	0.013263013
92	0x3c13d590	0.009023085
93	0x3d7526ea	0.059851564
94	0x3d6bcfe9	0.057571325
95	0x3d7810c6	0.06056287
96	0xbd644c16	-0.055736624
97	0xbdd51829	-0.10404999
98	0xbdaabfc9	-0.08337361
99	0xbd3d28c7	-0.046181466
100	0xbd45a647	-0.048254278
101	0xbc094b55	-0.008379777
102	0x3c0a605f	0.008445828
103	0x3c84530e	0.016152885
104	0x3cbe7104	0.02324725
105	0xbcde40f8	-0.027130589
106	0xbd34ba58	-0.044123024
107	0xbd8d1c8f	-0.06890213
108	0xbd0dc9d2	-0.0346163
109	0xbd1eaae9	-0.03873721
110	0xbd3bd89a	-0.045860864
111	0x3c91feae	0.017821636
112	0x3b102039	0.0021991862
113	0xbc1feb18	-0.009760641
114	0xbd157243	-0.03648592
115	0xbd24e42f	-0.040256675
116	0xbd35a206	-0.04434397
117	0x3a2f46eb	0.0006686288
118	0x3a405284	0.00073365145
119	0x3b34c8a1	0.0027585404
120	0xbb872c46	-0.004125151
121	0xbb8d9a88	-0.0043214
122	0xbb8dd378	-0.0043281876
123	0xbcccd831	-0.025005432
124	0xbccc59bf	-0.024945138
125	0xbccbf6c4	-0.02489794
126	0xbd3d4cfb	-0.046215992
127	0xbd3d369f	-0.04619467
128	0xbd3d31d5	-0.0461901
129	0x3c44a5e0	0.012002438
130	0x3c412e43	0.011790815
131	0x3c3a9968	0.011389114
132	0x3bb9cba3	0.0056700273
133	0x3b87c86c	0.004143765
134	0x3bdc3e91	0.0067213257
135	0xbb0875f9	-0.002082227
136	0xbac16696	-0.0014755304
137	0xba644537	-0.00087078236
138	0x3d1c2aa5	0.038126606
139	0x3d1c3752	0.038138695
140	0x3d1dc872	0.038521238
141	0xbd82122b	-0.063511215
142	0xbd81a9e3	-0.063312314
143	0xbd81961c	-0.06327459
144	0x3d0c896b	0.03431074
145	0x3d0befd9	0.034164283
146	0x3d0bee2e	0.034162693
147	0x3d571edd	0.052519668
148	0x3d567320	0.052355886
149	0x3d5601ee	0.052247934
150	0xbd285b68	-0.041102797
151	0xbd63ff99	-0.05566368
152	0xbd93bd48	-0.07213837
153	0xbbddc688	-0.0067680515
154	0xbccb553d	-0.024820918
155	0xbd36f154	-0.044663742
156	0xbc363904	-0.011121992
157	0xbbdf2cc0	-0.0068107545
158	0xbccac2df	-0.024751125
159	0x3c3c0540	0.011475861
160	0xbc33e3cc	-0.010979604
161	0xbbdd69d4	-0.0067570005
162	0xbd14b141	-0.036301855
163	0xbb82d6c1	-0.003992886
164	0xbaa7b86d	-0.0012796052
165	0xbd0280a5	-0.031860966
166	0xbc5d2df2	-0.013499724
167	0xbd7ca760	-0.06168306
168	0xb94176ee	-0.00018450219
169	0x3d028993	0.031869482
170	0x3cddf1a0	0.027092755
171	0xbc5d4ff4	-0.013507832
172	0xbcc5d2d1	-0.024148377
173	0xbd2e3d59	-0.042538974
174	0xbc022b63	-0.0079449145
175	0xbd53b1f1	-0.05168337
176	0xbd86e1c9	-0.06586034
177	0xbb8865f9	-0.0041625467
178	0xbc358e13	-0.011081236
179	0xbca4b771	-0.020107003
180	0xbc16cd9f	-0.009204297
181	0xbce5ae3b	-0.028037181
182	0xbd427412	-0.047473975
183	0xbcae0603	-0.021243101
184	0xbcc26414	-0.023729362
185	0xbcc014e6	-0.023447465
186	0xbbea36f3	-0.0071476637
187	0xbcbada83	-0.022809273
188	0xbcfe4fd8	-0.031043932
189	0xbc941e5f	-0.018080888
190	0xbcaf9d50	-0.021437317
191	0xbccfac52	-0.025350723
192	0xbca389d9	-0.019963192
193	0xbcec5104	-0.028847225
194	0xbd13167d	-0.03591012
195	0xbccaf5e8	-0.02477546
196	0xbd374415	-0.044742662
197	0xbd826447	-0.06366783
198	0x3d67e7f3	0.05661769
199	0x3d32e118	0.043671697
200	0xbbb52d00	-0.005529046
201	0x3da44e62	0.08022763
202	0x3d690241	0.056886915
203	0x3d986247	0.0744062
204	0xbd1106b1	-0.035406772
205	0xbc970c2e	-0.018438425
206	0xbd0b3c48	-0.033993036
207	0xbdc8faaa	-0.098134354
208	0xbda0dd38	-0.07854694
209	0xbe0ca0f6	-0.13733277
210	0xbcfa01f1	-0.030518504
211	0xbd047410	-0.03233725
212	0xbd13d9cc	-0.03609638
213	0xbd6bf1f1	-0.05760378
214	0xbd958d91	-0.07302392
215	0xbd945970	-0.07243621
216	0xbd11db41	-0.035609487
217	0xbd0ea5e1	-0.034826163
218	0xbd071be7	-0.032985594
219	0x3dd2b990	0.102892995
220	0x3dd32de3	0.103114866
221	0x3dd3a2e1	0.10333801
222	0x3d933622	0.071880594
223	0x3d9239dc	0.07139942
224	0x3d92d48c	0.07169446
225	0x3db61c2a	0.088920906
226	0x3db51e0c	0.088436216
227	0x3db57e3d	0.08861969
228	0x3e02c4c7	0.12770377
229	0x3e029fb6	0.12756237
230	0x3e03368d	0.12813778
231	0x3d8b0ee0	0.067899466
232	0x3d85c699	0.0653202
233	0x3d8757f8	0.066085756
234	0x3d3557e3	0.04427327
235	0x3d40aa8b	0.047037642
236	0x3d3137df	0.043266173
237	0xbdf8bac2	-0.12144996
238	0xbdf95de8	-0.12176114
239	0xbdfa2b52	-0.12215294
240	0xbca52e17	-0.020163579
241	0xbca52e35	-0.020163635
242	0xbca4227d	-0.020035977
243	0xbd523167	-0.051316645
244	0xbd5037c6	-0.05083444
245	0xbd4f89db	-0.05066858
246	0x3cf9abd1	0.030477436
247	0x3cf8ded6	0.030379694
248	0x3cfb9406	0.030710232
249	0xbd8eedd0	-0.06978953
250	0xbd8798f5	-0.06620971
251	0xbdce0883	-0.10060217
252	0xbd0a4bad	-0.033763576
253	0xbd0dc257	-0.034609165
254	0xbcb47841	-0.022029998
255	0xbce3701a	-0.027763415

network.0.conv1.bias f4 [64]
0	0x3af3bc20	0.0018595494
1	0xbd952cb8	-0.0728392
2	0x3bda5e1e	0.0066640517
3	0xbd642f9d	-0.05570947
4	0xbd944d69	-0.07241327
5	0x3d80bd87	0.062861495
6	0xbe12600c	-0.14294451
7	0xbe88fae7	-0.26753923
8	0xbd4633e1	-0.04838932
9	0xbd225e9a	-0.039641
10	0xbd48ff5f	-0.049071666
11	0xbcef802d	-0.029235924
12	0xbd36d49d	-0.044636358
13	0xbe370fdc	-0.17877144
14	0xbb040d43	-0.0020149506
15	0xbe9a7bb1	-0.30172494
16	0xbcc71d72	-0.024306033
17	0xbdcd9a55	-0.10039202
18	0xbe29fe59	-0.16600932
19	0x3b942a98	0.004521679
20	0xba54c9f3	-0.0008117251
21	0xbe3d805d	-0.18505998
22	0x3ddb5745	0.10710005
23	0xbdcd448e	-0.100228414
24	0xbd44fbc7	-0.048091676
25	0xbdc8734c	-0.09787616
26	0x3d1bc276	0.03802725
27	0xbca2ecb8	-0.019888267
28	0x3c020b38	0.007937245
29	0xbc51c33a	-0.012802893
30	0xbdc29851	-0.09501708
31	0xbda611d1	-0.08108867
32	0x3db21411	0.086952336
33	0xbd8a6138	-0.06756824
34	0xbdc8936c	-0.097937435
35	0x3b827de0	0.0039822906
36	0x3d313f07	0.043273
37	0xbe975596	-0.29557484
38	0xbdd0a243	-0.10187199
39	0xbeae529d	-0.34047404
40	0x3dd2ddfb	0.10296246
41	0xbe0b3958	-0.13596094
42	0x3d7926c8	0.060828
43	0x3db98b52	0.09059776
44	0x3d1ad65a	0.037802078
45	0xbd365a2d	-0.044519592
46	0x3d393a95	0.045221884
47	0xbd25516f	-0.040360864
48	0xbda0ff5e	-0.078612074
49	0x3fb656bb	1.4245218
50	0x3d2a1f5d	0.041533817
51	0xbd9f454a	-0.07776888
52	0x3e1195b9	0.14217271
53	0x3da1534a	0.07877214
54	0xbd683708	-0.056693107
55	0xbda9a163	-0.08282735
56	0xbea5a557	-0.32352707
57	0x3ea64a47	0.32478544
58	0xbd0a7e97	-0.03381213
59	0xbd4e5edd	-0.050383437
60	0x3cb60ead	0.022223795
61	0x3f619574	0.8811867
62	0xbd3332d4	-0.043749645
63	0xbd774797	-0.060371008

network.0.conv2.weight f4 [64, 64, 3]
0	0xbcd8967b	-0.026438942
1	0xbd62f2f9	-0.055407498
2	0xbc8b4689	-0.017001407
3	0xbcde705a	-0.027153183
4	0xbb932a6f	-0.0044911425
5	0x3ba080c1	0.004898161
6	0xbd8e9f92	-0.06964029
7	0xbdbb8593	-0.09156337
8	0xbd8e4448	-0.06946617
9	0xbd0b6219	-0.0340291
10	0xbc73a188	-0.014870055
11	0xbc8d2a30	-0.01723203
12	0xbcb9131d	-0.022592122
13	0xbbfc163a	-0.0076930793
14	0xbb78addc	-0.0037945425
15	0xbcb9f8d4	-0.022701658
16	0xbd7e4945	-0.062081594
17	0xbd29999f	-0.04140627
18	0x3d75e68b	0.060034316
19	0x3dd712f9	0.105016656
20	0x3d3aea79	0.045633767
21	0x3dc25052	0.09487976
22	0x3dd3fa6b	0.10350498
23	0xbd5e8e98	-0.054335207
24	0xbc26ba7a	-0.010176295
25	0xbca51537	-0.020151718
26	0xbc519289	-0.012791284
27	0xbc21bd5f	-0.00987181
28	0xb8be098a	-9.061683e-05
29	0x3c2da74a	0.010598967
30	0xbd27c737	-0.04096147
31	0xbd1f4b80	-0.03889036
32	0xbc600992	-0.013674157
33	0xbd066eca	-0.0328205
34	0xbcd37f6b	-0.025817594
35	0x39cff50c	0.0003966469
36	0xbdb1eba8	-0.08687526
37	0xbb6138de	-0.003436617
38	0xbcd2be64	-0.025725551
39	0xbc1c6437	-0.009545377
40	0x3d2f2df7	0.042768445
41	0x3ce647ed	0.028110469
42	0x3c56949e	0.013096957
43	0x3d37c675	0.044866998
44	0x3dc28e6d	0.09499822
45	0x3d83ba36	0.06432001
46	0xbddec64c	-0.10877666
47	0xbd353fbd	-0.04425024
48	0xbc77c0e7	-0.015121675
49	0xbd9c569c	-0.07633707
50	0xbd98c16a	-0.07458766
51	0xbc35ecc3	-0.011103812
52	0x3a74c6bf	0.0009337477
53	0x3db9322f	0.09042775
54	0x3dceb7e1	0.10093666
55	0x3d97681e	0.07392906
56	0x3da29efe	0.079404816
57	0x3b3cecb8	0.0028827619
58	0xbbe29f30	-0.0069159493
59	0x3d2906cf	0.04126626
60	0xbd0b086b	-0.033943575
61	0xbd913cc6	-0.0709167
62	0xbd00bb65	-0.031428713
63	0xbce6e56f	-0.028185574
64	0xbcce0190	-0.02514723
65	0x3b7f0494	0.003891264
66	0xbd9c28ed	-0.076249935
67	0xbe362531	-0.17787625
68	0xbe8d40de	-0.27588552
69	0x3ac3d53a	0.0014940866
70	0xbafec350	-0.001943687
71	0x3420df12	1.4982314e-07
72	0xbd401e78	-0.046904057
73	0x3d1fe1fd	0.03903388
74	0x3d3dbb1d	0.046321023
75	0xbc51651b	-0.012780453
76	0xbccac818	-0.024753615
77	0xbc738f4c	-0.014865708
78	0xbdd747fa	-0.10511775
79	0xbc8f1db6	-0.017470222
80	0xbcbd4477	-0.023103936
81	0xbc6d44ee	-0.014481766
82	0xbc915b88	-0.01774384
83	0xbcf77f44	-0.030212052
84	0xbd9bdf23	-0.07610919
85	0x3ba72d34	0.005101824
86	0xbcf69124	-0.030098505
87	0xbd87f62d	-0.06638751
88	0xbdc904bd	-0.09815357
89	0xbe05d56e	-0.13069698
90	0xbd3fabb5	-0.046794612
91	0xbc6ad597	-0.01433315
92	0xbb923833	-0.004462266
93	0xbd0345c2	-0.032048948
94	0xbc7fd60a	-0.015614996
95	0x3c84caf3	0.016210055
96	0xbd8a77f7	-0.06761163
97	0xbd5529f3	-0.05204196
98	0xbd56962d	-0.052389313
99	0xbcfb8e26	-0.03070743
100	0xbde3348a	-0.110940054
101	0xbce3b90d	-0.0277982
102	0xbdd362cd	-0.10321579
103	0xbda86fc5	-0.08224443
104	0xbd05f2ac	-0.032702133
105	0xba16a113	-0.0005746048
106	0x3c6c726d	0.014431578
107	0x3c0731a0	0.008251578
108	0x3dcfbbcb	0.101432405
109	0x3d7b8b88	0.061412364
110	0xbe5547c7	-0.20828162
111	0x3d12eb46	0.035868905
112	0xbe167aff	-0.14695357
113	0x3ed93493	0.42422923
114	0x3a84e53a	0.0010139116
115	0x3b73dba2	0.0037209769
116	0xbc24700b	-0.010036479
117	0x3e6df2f8	0.23237216
118	0xbdccc245	-0.099979915
119	0xbe6f4fd4	-0.23370296
120	0xbda09626	-0.078411385
121	0xbcb1efc2	-0.02172077
122	0xb0f95c63	-1.8143392e-09
123	0xbd103748	-0.03520897
124	0xbcc139b6	-0.023587089
125	0xbb0c81e4	-0.0021439726
126	0xbd7bd8b0	-0.061485946
127	0xbd55d40e	-0.052204184
128	0xbd6c1c19	-0.057643984
129	0xbd92c1a9	-0.07165844
130	0xbc4edef3	-0.012626397
131	0x3d0a7288	0.03380063
132	0xb9b04b41	-0.00033625404
133	0x3baa761c	0.005202068
134	0xbc480a0d	-0.012209428
135	0x3b637cfa	0.0034711943
136	0xbc2786f8	-0.01022505
137	0xb9c76510	-0.00038031535
138	0xbcfcfe0a	-0.030882854
139	0xbc756ea0	-0.014979988
140	0xbc0f8764	-0.008760307
141	0x3b8ac274	0.0042346064
142	0xbbee97e2	-0.0072812894
143	0x3d09e2e4	0.033663645
144	0x3b87ce0c	0.0041444357
145	0x3bb74944	0.0055934507
146	0x3c979ff1	0.018508883
147	0x3cccb746	0.024989735
148	0xbd5499eb	-0.0519046
149	0xbd8844f6	-0.06653778
150	0xbda8ae91	-0.08236421
151	0xb9f787e7	-0.00047212766
152	0x3a6a9f53	0.0008950133
153	0xbd478e5c	-0.04871975
154	0xbd174ead	-0.036940265
155	0xbc5a1d98	-0.01331272
156	0xbc96fe76	-0.018431883
157	0xbcb9ff69	-0.022704797
158	0xba70bd85	-0.0009183514
159	0xbcb192ae	-0.021676388
160	0xbc694912	-0.014238613
161	0xb9ba5335	-0.0003553868
162	0xbd473c57	-0.04864153
163	0xbcdfcd55	-0.02731959
164	0xbc9c72c2	-0.01909769
165	0xbcff0ed2	-0.031134997
166	0xbcb4f52d	-0.022089565
167	0xbc957946	-0.018246304
168	0x3be5de4f	0.0070150266
169	0xbe4eeb4e	-0.20206949
170	0x3df1df55	0.11810175
171	0xbe5118b8	-0.20419586
172	0xbe0702f8	-0.13184726
173	0xbe5a1961	-0.21298744
174	0xbd5d6726	-0.05405345
175	0xbd5b6bc3	-0.053569566
176	0xbd29d573	-0.041463327
177	0x3dd481fd	0.10376356
178	0xbc181424	-0.009282146
179	0xbd127cba	-0.03576348
180	0xbd88fc0b	-0.066886984
181	0xbde3991f	-0.1111319
182	0xbd87b56f	-0.066264026
183	0xbe6bb533	-0.23018341
184	0xbda20a89	-0.07912166
185	0xbdb47dc1	-0.08813048
186	0xbdd3d36f	-0.10343062
187	0xbd2b965b	-0.041891437
188	0xbd56354f	-0.052296933
189	0xbbbd8a3f	-0.0057843025
190	0xbb44b208	-0.0030013341
191	0x378c0353	1.6690848e-05
192	0x00056301	4.94693e-40
193	0x00062d95	5.67365e-40
194	0x800562ab	-4.94573e-40
195	0x80055836	-4.90822e-40
196	0x00055cc8	4.92461e-40
197	0x800559c3	-4.91378e-40
198	0x800561e4	-4.94294e-40
199	0x80055c3a	-4.92262e-40
200	0x0005586e	4.909e-40
201	0x00055b37	4.91899e-40
202	0x80056016	-4.93647e-40
203	0x8005666e	-4.95922e-40
204	0x944f1b2c	-1.0456188e-26
205	0x9237d179	-5.8002813e-28
206	0x000560bd	4.9388e-40
207	0xba75a1a4	-0.00093700946
208	0xb9631b37	-0.00021658545
209	0xb95fa1bb	-0.00021327187
210	0x80055eaf	-4.93144e-40
211	0xb5f3ace6	-1.8155231e-06
212	0x064a6e40	3.8072976e-35
213	0x921d372f	-4.9608484e-28
214	0xad2a1dc7	-9.669993e-12
215	0xa0c3e8c5	-3.318832e-19
216	0x00055e90	4.931e-40
217	0x80056145	-4.94071e-40
218	0x00056378	4.9486e-40
219	0x0005589d	4.90966e-40
220	0x00055bc2	4.92094e-40
221	0x800557fb	-4.90739e-40
222	0x000563ac	4.94933e-40
223	0x0005627e	4.9451e-40
224	0x00055f0b	4.93272e-40
225	0x80055fdb	-4.93564e-40
226	0xbc21efdd	-0.009883848
227	0xbc3155f3	-0.010823715
228	0x000558a7	4.9098e-40
229	0x000584a4	5.0676e-40
230	0x00058342	5.06264e-40
231	0x80055fb5	-4.9351e-40
232	0x0005609e	4.93837e-40
233	0x800557e7	-4.90711e-40
234	0x80055d9c	-4.92758e-40
235	0x0006da22	6.29264e-40
236	0x00055922	4.91152e-40
237	0xb391f6ce	-6.796982e-08
238	0xa83cb883	-1.0476106e-14
239	0x9f3f9841	-4.0571765e-20
240	0x00055d7d	4.92715e-40
241	0x00056367	4.94836e-40
242	0x800557b1	-4.90635e-40
243	0xba996123	-0.0011701923
244	0x8005631c	-4.94731e-40
245	0xb980f4a7	-0.00024596343
246	0xbb4e96ae	-0.0031522918
247	0x8005597b	-4.91277e-40
248	0xbba796db	-0.005114419
249	0x00055d4b	4.92645e-40
250	0x0005663c	4.95852e-40
251	0x8005a59b	-5.18586e-40
252	0x00055bfa	4.92172e-40
253	0x000562ab	4.94573e-40
254	0x0005576c	4.90539e-40
255	0x00055a87	4.91653e-40

network.0.conv2.bias f4 [64]
0	0xbd1c57fa	-0.03816984
1	0xba848743	-0.0010111112
2	0xbd4d7d95	-0.050168592
3	0xbd340680	-0.04395151
4	0x3edaa0f9	0.42700937
5	0xbe00e40f	-0.12586997
6	0x3e5bb18d	0.21454449
7	0xbd77b2d3	-0.060473274
8	0xbda05cb2	-0.0783018
9	0x3f13356e	0.575034
10	0xbda4f9f5	-0.08055488
11	0xbd9eab9b	-0.07747575
12	0xbdce46b4	-0.10072079
13	0xbd878f02	-0.066190735
14	0xbdddf4c4	-0.10837701
15	0xbdc0e8f3	-0.094194315
16	0xbd3f4690	-0.046698153
17	0xbc9284c2	-0.01788557
18	0xbda2a2d8	-0.07941216
19	0xbdc51f24	-0.0962508
20	0x3d087c87	0.033321884
21	0xbd5eee6c	-0.054426596
22	0xbe06ca51	-0.13163115
23	0xbd890325	-0.06690053
24	0x3d4f3870	0.050590932
25	0xbc2b87bb	-0.010469372
26	0x3e8d2ebb	0.27574715
27	0xbdebbd2a	-0.115106896
28	0xb9310f79	-0.000168858
29	0xbd993893	-0.07481494
30	0xbdc49b55	-0.0959994
31	0xbcffd093	-0.031227386
32	0xbd7b171b	-0.061301332
33	0xbdd33d64	-0.10314444
34	0x3f34f65c	0.70688415
35	0xbe17cfcd	-0.14825363
36	0x3e18cb52	0.1492131
37	0x8dd08df3	-1.2853163e-30
38	0xbd4ff2bd	-0.050768603
39	0xbdd733f3	-0.105079554
40	0xbc3eda3c	-0.011648711
41	0xbd0aaeb7	-0.033858027
42	0xbd864d9f	-0.06557774
43	0xbcc472d4	-0.023980536
44	0xbd38eb48	-0.045146257
45	0xbce9a2d6	-0.028520029
46	0xb976b510	-0.00023527839
47	0xbdbdcc07	-0.09267431
48	0xbe76cf97	-0.24102627
49	0x3e1903ec	0.14942902
50	0xbd5b5891	-0.05355126
51	0xbd239961	-0.039941195
52	0xbc6aaa20	-0.0143227875
53	0x3dca2627	0.09870558
54	0xbdddd386	-0.108313605
55	0xbdb0bd74	-0.08629885
56	0xbe0680db	-0.13135092
57	0xbda6c798	-0.08143538
58	0xbd9828af	-0.07429635
59	0xbe134d57	-0.14384972
60	0xbd585cc7	-0.052822854
61	0xbd1ae1e1	-0.03781307
62	0xbd740b85	-0.0595813
63	0xbd9420c8	-0.07232815

network.0.downsample.weight f4 [64, 33, 1]
0	0x3d5abfdd	0.05340563
1	0xbdf859a5	-0.12126473
2	0xbf297094	-0.66187406
3	0x3daf6ab3	0.08565273
4	0xba04dff3	-0.00050687714
5	0xbbe48c2b	-0.006974717
6	0xbd4dd722	-0.050253995
7	0xbd750a92	-0.059824534
8	0xbe17cd77	-0.14824472
9	0x3d138aa8	0.036020905
10	0x3d9db8ff	0.07701301
11	0xbe00a805	-0.12564094
12	0xbdba7bd4	-0.091056496
13	0x3d8f2ffa	0.06991573
14	0xbd42bd1a	-0.047543623
15	0xbd9711bf	-0.07376432
16	0x3d230bab	0.03980605
17	0x3dbd0497	0.09229391
18	0x3e50e4ee	0.2039983
19	0xbe174017	-0.14770542
20	0x3e1f4020	0.15551805
21	0x3e7d936a	0.24763265
22	0x3e0e94de	0.13923976
23	0x3982f4cd	0.00024977923
24	0xbe015c18	-0.12632787
25	0x3e85e38a	0.2615016
26	0xbdf345c5	-0.11878542
27	0x3e720108	0.23633206
28	0x3e35eec1	0.17766859
29	0xbd22fa14	-0.039789274
30	0xbd2ef76e	-0.042716436
31	0x3e2d0eb2	0.16900137
32	0xbebeea8f	-0.3728833
33	0xbc9bc718	-0.019015834
34	0x3d9f103b	0.077667676
35	0x3f7e8efd	0.9943693
36	0x3b3d3788	0.002887221
37	0x3d1e6082	0.038666256
38	0x3c1d2088	0.009590276
39	0xbca05ad9	-0.01957457
40	0x3ccedbc2	0.025251273
41	0x3c5ae0b6	0.013359239
42	0x3ab91106	0.0014119453
43	0xbd452765	-0.048133273
44	0x3d35d153	0.04438908
45	0xbd4bc3d6	-0.04974731
46	0xbd73bb53	-0.05950482
47	0x3d770884	0.060310856
48	0xbd0e3314	-0.03471668
49	0xbd805c41	-0.06267596
50	0x3ce00645	0.02734674
51	0x3dcbec31	0.09957159
52	0x3dd03839	0.101669736
53	0x3d355969	0.04427472
54	0xbd1879fa	-0.0372257
55	0x3df75f53	0.120787285
56	0x3d020dce	0.031751446
57	0xbe9a524a	-0.30140907
58	0xbce7f973	-0.028317189
59	0xbdae375a	-0.08506651
60	0xbd3cd386	-0.046100162
61	0xbd5a1846	-0.053245805
62	0xbbd99666	-0.0066402433
63	0xbda0b2de	-0.07846616
64	0x3d491d5c	0.049100265
65	0xbf5237e6	-0.82116544
66	0xbd19529d	-0.0374323
67	0xbb3ab2b5	-0.0028487865
68	0xbeec2b82	-0.46126944
69	0x3ccb4355	0.02481238
70	0xbce3ce1f	-0.027808247
71	0x3c133da0	0.0089868605
72	0xbd85ba02	-0.06529619
73	0xbc8aeb9f	-0.016958056
74	0x3c9e5714	0.019328631
75	0xbcd760cc	-0.026291274
76	0x3ce04dfc	0.027380936
77	0x3d2f2110	0.04275614
78	0x3ae8e379	0.0017767987
79	0x3d55a616	0.052160345
80	0xbd9063c4	-0.07050279
81	0xbd41c057	-0.04730257
82	0xbd8a8379	-0.06763358
83	0x3d145370	0.036212385
84	0xbe18539b	-0.14875643
85	0x3c9385ed	0.018008197
86	0xbc8e9d93	-0.017409122
87	0x3c1ee614	0.00969841
88	0xbd50692a	-0.050881542
89	0x3cb7eebc	0.022452705
90	0x3deff9b9	0.11717553
91	0x3d64d0fa	0.055863358
92	0x3ac0bf7c	0.0014705504
93	0x3c3931a1	0.011303336
94	0x3d754150	0.05987674
95	0xbd8ed41b	-0.0697405
96	0x3cc1d9d7	0.023663444
97	0xbcd73d1f	-0.026274262
98	0x3ef086b0	0.46977758
99	0x3d6a902e	0.057266407
100	0xbd63533b	-0.055499297
101	0x3e8bcd24	0.27304947
102	0xbc64097c	-0.013918277
103	0x3cd2a9c6	0.02571572
104	0xbce55761	-0.027995767
105	0x3a128b9e	0.00055902626
106	0x3b97f00d	0.0046367706
107	0x3cf9644b	0.030443331
108	0xbb9520c9	-0.0045510274
109	0xbb91ba80	-0.0044472814
110	0x3b9aef2d	0.004728219
111	0x3d8cda8c	0.06877622
112	0xbdc24866	-0.09486465
113	0x3db7ddf3	0.0897788
114	0x3ce986bf	0.028506635
115	0x3d4ab7f6	0.049491845
116	0xbca520ae	-0.020157184
117	0x3e0ca166	0.13733444
118	0xbd015ff2	-0.03158564
119	0x3d030274	0.03198476
120	0xbe0af114	-0.13568527
121	0x3c67d9d7	0.014151058
122	0xbbe7f6bc	-0.0070789736
123	0xbd1ad91f	-0.03780472
124	0x3d35a4a7	0.044346478
125	0x3cacdd1d	0.021101529
126	0xba9b0d3d	-0.0011829507
127	0x3d313cdb	0.043270927
128	0xbd58ceda	-0.052931644
129	0x3d190c97	0.037365522
130	0xbb4427fd	-0.0029931061
131	0xbe506dd0	-0.2035439
132	0xbd81aa35	-0.063312925
133	0x3c9aee56	0.018912476
134	0x3e8aa559	0.27079275
135	0x3b200a6b	0.0024420272
136	0xbde5923c	-0.112095326
137	0x3d1ffc0e	0.039058737
138	0xbd6da884	-0.058022037
139	0xbd486d08	-0.048932105
140	0xbcece82b	-0.0289193
141	0x3c9e79e3	0.01934523
142	0x3c1a0a99	0.009401941
143	0xbd2850b5	-0.041092593
144	0x3c11281e	0.008859662
145	0x3bf1e91d	0.0073825256
146	0xbd442a41	-0.04789186
147	0xbd5fec6f	-0.05466884
148	0xbdbcf796	-0.09226911
149	0xbe13aea0	-0.14422083
150	0xbee4759a	-0.44620973
151	0x3d780899	0.060555074
152	0xbd6a00e6	-0.057129763
153	0x3e2d9d14	0.16954452
154	0xbd21dc36	-0.03951665
155	0x3d97e7a4	0.07417229
156	0x3d41deb2	0.04733152
157	0xbdc13c1c	-0.09435293
158	0x3d55ec62	0.052227385
159	0x3bcc4d0d	0.006234771
160	0xbd00802e	-0.03137224
161	0x3dc6f91f	0.09715485
162	0xbd09b64e	-0.033621125
163	0x3d7a2c57	0.061077442
164	0x3e434b3f	0.19071673
165	0xbc631377	-0.013859621
166	0x3d55fa11	0.052240435
167	0x3fabb09e	1.3413274
168	0x3cfaf565	0.030634591
169	0x3db45084	0.0880442
170	0x3d94dcc8	0.07268673
171	0xbd585cca	-0.052822866
172	0x3d0492dc	0.03236662
173	0xbc0cb77a	-0.008588666
174	0xbc43d825	-0.011953388
175	0xbc88851d	-0.016665036
176	0xbc3dbdda	-0.011580909
177	0x3c943d15	0.018095532
178	0xbd32a4e1	-0.043614272
179	0x3d45d32f	0.048297103
180	0xbce053a7	-0.027383639
181	0xbd897c24	-0.06713131
182	0xbc395906	-0.011312729
183	0x3e77c820	0.24197435
184	0x3db1f36e	0.08689009
185	0x3c0ba1f7	0.008522502
186	0x3cc74fbe	0.024330016
187	0x3df8bf1e	0.12145828
188	0xbd1fd8a8	-0.03902498
189	0xbec76bf9	-0.38949564
190	0x3b8bad5b	0.004262609
191	0xbdf48431	-0.11939276
192	0xbc97b4f0	-0.018518895
193	0xbd73bf39	-0.059508536
194	0xbdaaa5f3	-0.083324336
195	0xbd815bc5	-0.06316332
196	0xbbbb57e5	-0.005717265
197	0xbf927725	-1.144261
198	0xbe069c8c	-0.13145655
199	0xbd6a1224	-0.057146206
200	0x3f63b6cd	0.88950807
201	0x3e0634e6	0.13106117
202	0xbd2aa28b	-0.04165892
203	0x3e3f2ff1	0.18670632
204	0xbd2f0142	-0.04272581
205	0xb9550cb0	-0.0002031799
206	0xbd9ada06	-0.07561116
207	0x3d44b849	0.04802731
208	0x3d886602	0.066600814
209	0xbcd838dc	-0.0263943
210	0x3d8d0267	0.06885224
211	0xbd99cf16	-0.07510202
212	0x3c85ddba	0.016341079
213	0xbcae8e01	-0.021307947
214	0xbd5f93e2	-0.05458439
215	0x3e1f6dfd	0.15569301
216	0xbf4d7615	-0.80258304
217	0x3d375e29	0.044767532
218	0x3c9c9f44	0.019118913
219	0x3e4958c0	0.19662762
220	0xbe089ad3	-0.13340311
221	0x3c14d935	0.009084989
222	0xbe93a240	-0.28834724
223	0xbe6ad7c0	-0.22933865
224	0xbd0fd5f3	-0.035116147
225	0xbd984fc5	-0.0743709
226	0xbe32202b	-0.17395084
227	0x3e85f653	0.26164493
228	0xbcacc4cc	-0.021089934
229	0x3e1b2544	0.15150934
230	0xbe03fee5	-0.12890203
231	0x3ce4486d	0.027866567
232	0xbd736d42	-0.05943037
233	0xbf5eee9b	-0.87082833
234	0xbd4d6d22	-0.050152905
235	0xbc5d1940	-0.01349479
236	0xbbe0fb48	-0.0068658926
237	0x3cc32903	0.023823267
238	0xbd0c3111	-0.03422648
239	0x3be2903a	0.006914166
240	0x3d2a85a4	0.041631356
241	0x3cb71c32	0.022352312
242	0x3d8c4fcd	0.06851158
243	0x3e05b88e	0.13058683
244	0xbd298cc9	-0.04139403
245	0xbcf85bcd	-0.030317212
246	0xbc769df3	-0.0150523065
247	0x3d7ac41c	0.06122218
248	0x3dd41cac	0.10357031
249	0x3e9b3c00	0.30319214
250	0xbe966da4	-0.29380524
251	0xbd47c0c8	-0.048767835
252	0xbd5bed99	-0.053693388
253	0xbc97d4eb	-0.018534144
254	0x3d80c097	0.062867336
255	0x3e2ffd75	0.1718653

network.0.downsample.bias f4 [64]
0	0xbe1b3b1c	-0.15159267
1	0xbd8d83f1	-0.069099315
2	0xbc5ef312	-0.013607757
3	0xbcaf7f15	-0.021422902
4	0xbe36bf5c	-0.17846435
5	0xbd86eb5d	-0.06587861
6	0xbd52c3a4	-0.05145611
7	0x3d1fd826	0.039024495
8	0xbc9a363a	-0.018824685
9	0xbe855556	-0.2604167
10	0xbf600e1f	-0.8752155
11	0x3d89aed1	0.06722797
12	0x3c9fcc8d	0.019506717
13	0xbbfc39ed	-0.007697335
14	0xbda1f228	-0.07907516
15	0xbdc008dd	-0.093766905
16	0xbca9eb10	-0.02074197
17	0xbd4e34d7	-0.05034336
18	0xbd7648b6	-0.060127936
19	0xbcd9eeb9	-0.02660309
20	0xbd5f8a58	-0.054575294
21	0xbcb9b0e7	-0.022667361
22	0xbd3bad7a	-0.045819737
23	0xbc4e51c5	-0.012592738
24	0x3e3422ab	0.1759135
25	0x3ec3ae80	0.3821907
26	0xbe9ef455	-0.31045786
27	0x3ed77ede	0.4208898
28	0xbd55ed77	-0.052228417
29	0xbcc216ef	-0.023692576
30	0xbd3dfd0d	-0.046383906
31	0xbdfb6d59	-0.12276716
32	0x3c0fe903	0.008783582
33	0xbd7a610d	-0.06112771
34	0xbd650c9e	-0.055920236
35	0x3d30b578	0.043141812
36	0x3db3fed4	0.08788839
37	0x3d572fa7	0.05253568
38	0xbd471ca3	-0.048611294
39	0xbc983294	-0.018578805
40	0xba2dac23	-0.00066250766
41	0xbe6b4cdd	-0.2297854
42	0x3d2e4e7b	0.042555314
43	0x3dbadeee	0.09124552
44	0x3adaa36d	0.0016680785
45	0x3ead5c49	0.3385947
46	0xbc501e93	-0.012702602
47	0x3d1655dc	0.036702976
48	0x3d73c61b	0.0595151
49	0x3d1b8a38	0.037973613
50	0x3f9f6250	1.2451878
51	0xbc869f63	-0.016433423
52	0x3ea7ff1b	0.32811818
53	0xbb27536c	-0.00255319
54	0x3af08738	0.0018350845
55	0x3d1a7f29	0.037718926
56	0xbcee8acf	-0.029118923
57	0x3e960548	0.29300904
58	0xbd2297d7	-0.039695587
59	0xbd86ef02	-0.06588556
60	0xbd2510d4	-0.04029925
61	0x3d9d2bbf	0.076743595
62	0xbd49c394	-0.049258783
63	0xbd370fb2	-0.044692703

network.1.conv1.weight f4 [64, 64, 3]
0	0x3e6781f9	0.22608174
1	0x3cc091cc	0.023507021
2	0x3d2b37fe	0.041801445
3	0xbd1cc227	-0.038271096
4	0xbd78b31e	-0.060717694
5	0x3e053321	0.13007785
6	0x3d4eb002	0.050460823
7	0x3e1cb9ca	0.15305248
8	0xb9b44d40	-0.0003438983
9	0xbdab4fbe	-0.08364819
10	0xbb835ac7	-0.0040086242
11	0x3d52851f	0.051396485
12	0x3cb0d2f5	0.021584967
13	0x3e1a3db8	0.15062606
14	0x3e047385	0.12934692
15	0xbc33ddce	-0.010978175
16	0xbca76cab	-0.02043756
17	0x3dee724a	0.11642893
18	0x3c850d7f	0.016241787
19	0xbcd8fbda	-0.02648728
20	0xbdd549c9	-0.10414464
21	0xbdc4a8b3	-0.09602489
22	0xbc0f2c0f	-0.008738532
23	0xbe60df1b	-0.21960108
24	0x3dda7b56	0.10668056
25	0x3cff8dbf	0.03119552
26	0xbc5b19ef	-0.013372882
27	0xbd3b3c63	-0.045711886
28	0xbd951102	-0.072786346
29	0x3cd2f8d3	0.025753414
30	0xbd8bf924	-0.06834629
31	0x3d5ce7ff	0.053932186
32	0x3e7862d3	0.24256448
33	0x3d33c27f	0.043886658
34	0x3dbe3adc	0.0928857
35	0xbd176aef	-0.036967214
36	0xbda9b356	-0.08286159
37	0xbd5bcb9b	-0.05366097
38	0xbd852d89	-0.06502826
39	0x3b53e93a	0.0032335059
40	0xbcba14af	-0.02271494
41	0x3e39ca18	0.18143499
42	0xbbe0041a	-0.0068364264
43	0xbb8a60ab	-0.0042229495
44	0x3e0bf7be	0.13668725
45	0xbd8ecb51	-0.06972373
46	0x3ce0a2b6	0.027421337
47	0x3e1c1c99	0.15245284
48	0xbd7bde98	-0.06149158
49	0xbcd87dd1	-0.026427181
50	0x3d667854	0.056267098
51	0xbd111850	-0.035423577
52	0xbd2a2917	-0.041543093
53	0x3ca1cb37	0.01975022
54	0xbda20010	-0.07910168
55	0xbda1997b	-0.07890602
56	0x3e3af0f7	0.18255983
57	0x3c7690e0	0.015049189
58	0x3d9cb239	0.07651181
59	0xbda765ba	-0.081737
60	0xbe2c2592	-0.16811207
61	0x3dd6ef03	0.104948066
62	0x3e05c56e	0.13063595
63	0xbd496ad2	-0.049174137
64	0xbc19e7e2	-0.009393664
65	0xbcda269f	-0.026629744
66	0xbde0f10d	-0.10983477
67	0x3d0538f0	0.032525003
68	0xbdb89dfb	-0.090145074
69	0xbe04fdf2	-0.12987497
70	0xbd06a2f3	-0.032870244
71	0x3ebb7a3d	0.36616698
72	0xbd8b44bc	-0.068002194
73	0xbdb1469c	-0.08656046
74	0xbe364536	-0.1779984
75	0x3c307839	0.010770851
76	0xbd3b457d	-0.045720566
77	0xbe196167	-0.14978562
78	0xbd3038b5	-0.04302283
79	0x3e4cfb89	0.20017828
80	0x3d7d8046	0.06188991
81	0xbe5e3f08	-0.21703732
82	0xbd0e8b0b	-0.03480057
83	0x3e819a92	0.2531324
84	0xbc8657a1	-0.016399207
85	0xbccf9297	-0.025338454
86	0x3e128929	0.14310135
87	0xbc68e8be	-0.014215646
88	0xbd1d8e3f	-0.038465735
89	0xbd186bd8	-0.037212223
90	0xbd038c39	-0.03211615
91	0xbcda961a	-0.026682902
92	0x3dda4c9b	0.106591426
93	0x3d66e984	0.05637504
94	0xbd3f5c3d	-0.046718825
95	0x3dff32d1	0.12460864
96	0x3d80d6d6	0.06290977
97	0x3cc153d7	0.023599548
98	0xbec3e37c	-0.38259494
99	0x3dcd4b24	0.100240976
100	0x3da39729	0.07987816
101	0xbed4ea2f	-0.41584918
102	0xbd56e34f	-0.052462872
103	0xbe00f033	-0.12591629
104	0xbe08241a	-0.13295022
105	0xbcc957a7	-0.024577929
106	0x3ceeda8f	0.029156951
107	0xbddbbd4a	-0.107294634
108	0xbe8aa2b0	-0.27077246
109	0xbe11d834	-0.14242631
110	0x3d29932d	0.041400123
111	0xbc4ea9e2	-0.012613745
112	0x3d7849ce	0.06061726
113	0xbe71f9a4	-0.23630387
114	0x3cc6ca27	0.024266316
115	0x3d0ad74b	0.033896726
116	0x3aae04ce	0.0013276578
117	0xbbc04683	-0.0058677807
118	0x3e1273ec	0.14302033
119	0x3e43ed27	0.19133435
120	0xbcc7f14a	-0.024407048
121	0xbd01cb79	-0.031688187
122	0x3b884227	0.0041582766
123	0x3c194a77	0.009356133
124	0xbd825c74	-0.0636529
125	0x3e112e46	0.14177808
126	0x3c54559b	0.012959863
127	0xbd8b0c67	-0.06789475
128	0xbda3f0a8	-0.08004886
129	0xbcfc38fc	-0.030788891
130	0xbe149496	-0.14509806
131	0xbd970938	-0.07374805
132	0x3cf5bf61	0.029998483
133	0xbd0f8c41	-0.035045866
134	0xbcb4deab	-0.022078833
135	0x3d134618	0.03595552
136	0x3d2f63b1	0.042819683
137	0x3e8845ae	0.2661566
138	0xbd706c9c	-0.058697328
139	0x3c0f3e2f	0.008742853
140	0xbdac2b2d	-0.084066726
141	0x3cee2a4c	0.029072903
142	0x3da6d0c5	0.081452884
143	0xbd965a7c	-0.07341477
144	0xbe2d1aa5	-0.16904695
145	0xbe0566ba	-0.13027468
146	0x3eab3bae	0.3344397
147	0xbde68dfd	-0.11257551
148	0xbddaf502	-0.10691263
149	0x3eae59a5	0.34052768
150	0xbeee7448	-0.4657309
151	0xbed222de	-0.41042227
152	0x3e2823b5	0.16419871
153	0xbd649a74	-0.05581136
154	0xbc8920b0	-0.01673922
155	0xbe7b55d0	-0.24544454
156	0xbd7adcef	-0.061245855
157	0x3cdc751f	0.026911316
158	0xbea15faf	-0.31518313
159	0x3ab2aec7	0.001363241
160	0xbe00c918	-0.12576711
161	0x3e2df085	0.16986282
162	0x3e451903	0.19247822
163	0x3de07d4d	0.10961399
164	0xbdf19de4	-0.11797693
165	0x3d1f1308	0.03883651
166	0x3b9410f6	0.0045186235
167	0xbe81fb9f	-0.25387284
168	0xbba0697a	-0.0048953863
169	0x3cd27fa5	0.025695631
170	0x3df60899	0.120133586
171	0x3d6a8c2c	0.057262585
172	0x3e4a42fe	0.19752118
173	0xbe967b5a	-0.29390985
174	0xbd2d802a	-0.042358555
175	0xbd447404	-0.047962204
176	0xbd99b57e	-0.0750532
177	0x3c49715b	0.012295092
178	0x3d3bea5a	0.045877792
179	0x3e008c28	0.12553465
180	0xbdec4a27	-0.11537581
181	0xbdebabe4	-0.11507395
182	0x3e801b28	0.2502072
183	0xbe23cf10	-0.15996957
184	0x3c35706e	0.011074169
185	0x3ead8514	0.33890593
186	0xb90df951	-0.00013539685
187	0xbd75781d	-0.059929002
188	0x3e07ef84	0.13274962
189	0x3d7ac75b	0.061225276
190	0xbd2f2101	-0.042756084
191	0x3cb862b3	0.022508001
192	0x3e9e6f28	0.3094418
193	0x3e1f4bbf	0.15556239
194	0x3dff4828	0.124649346
195	0xbe0583b4	-0.13038522
196	0xbd90dc96	-0.070733234
197	0x3dd374f5	0.10325042
198	0xbd26168e	-0.040548854
199	0x3e19067f	0.14943884
200	0xbdc14d56	-0.09438579
201	0xbd840f3f	-0.064482205
202	0x3d09e753	0.033667874
203	0xbd67e77c	-0.056617245
204	0xbcb2a8b8	-0.021808967
205	0x3dd0603a	0.10174604
206	0x3e5e7079	0.21722592
207	0xbd2bcbee	-0.04194253
208	0xbc7568ec	-0.014978629
209	0x3e312b7f	0.17301749
210	0xbdcb4c1a	-0.099266246
211	0xbcb5278e	-0.022113588
212	0x3e67acff	0.22624587
213	0x3cf2599c	0.029583745
214	0x3cb8b912	0.022549186
215	0xbdbb9b15	-0.09160439
216	0x3da6bab4	0.081410795
217	0xbd91969d	-0.07108805
218	0xbdeb8d85	-0.11501602
219	0xbdc804cd	-0.09766541
220	0xbdde3405	-0.10849766
221	0x3c9918b7	0.018688543
222	0xbd59a025	-0.05313124
223	0x3d90ebe8	0.070762455
224	0x3d3b600d	0.045745898
225	0x3bb4b332	0.005514526
226	0x3e06f4dc	0.13179344
227	0xbd4d6e07	-0.05015376
228	0xbce73f8c	-0.028228544
229	0xba1e7d60	-0.0006045904
230	0xbcf8b65e	-0.030360397
231	0xbd93cd5a	-0.07216902
232	0xbd59448c	-0.053043887
233	0x3d8c0f6d	0.0683888
234	0xbcb72ca1	-0.022360148
235	0x3b992d75	0.0046746084
236	0x3e0acec9	0.13555445
237	0xbdb23565	-0.087015904
238	0xbd4b4a50	-0.049631417
239	0x3e1e7073	0.15472583
240	0x3c3e479b	0.011613752
241	0xbd29e6a9	-0.04147974
242	0x3dc9fa05	0.098621406
243	0x3be6da63	0.0070450767
244	0xbd779326	-0.060443066
245	0x3d7b58d9	0.06136403
246	0xbdd579eb	-0.10423645
247	0xbd9262e4	-0.07147768
248	0x3e224cd6	0.15849623
249	0xbd37eea3	-0.044905316
250	0xbce823b4	-0.028337337
251	0xbe0ac596	-0.13551936
252	0xbc95c737	-0.01828347
253	0x3df530ad	0.11972175
254	0x3db0b84b	0.08628901
255	0xbd5536b6	-0.05205413

network.1.conv1.bias f4 [64]
0	0xbe70220c	-0.23450488
1	0xbe8bbfa2	-0.27294642
2	0x3d827cdb	0.063714705
3	0x3cff22bc	0.031144492
4	0xbe036c91	-0.12834384
5	0xbea3cf25	-0.31993976
6	0xbe08b235	-0.1334923
7	0xbcc9f9ca	-0.024655242
8	0xbf133d04	-0.5751498
9	0xbf0de864	-0.55432725
10	0x3dfc603b	0.12323042
11	0xbea67b4f	-0.32515952
12	0xbe441659	-0.1914915
13	0x3cd7889b	0.026310256
14	0xbda58ed4	-0.08083883
15	0xbdb563f5	-0.08856956
16	0xbe5d3cc7	-0.21605216
17	0x3d5746cd	0.052557755
18	0xbe54ff68	-0.20800555
19	0xbe1dee40	-0.15422916
20	0xbe68ac38	-0.22721946
21	0xbdb7bd57	-0.089716606
22	0xbd3e4e8d	-0.04646163
23	0xbf1ca00f	-0.6118173
24	0x3cd174e5	0.025568435
25	0xbd82edb2	-0.06392993
26	0xbd2bfc8c	-0.041988894
27	0xbdbd3dfd	-0.09240339
28	0xbe2a0350	-0.16602826
29	0x3d8f3edf	0.069944136
30	0x3d695b2c	0.056971714
31	0x3da51bcc	0.080619425
32	0xbe0191b8	-0.12653244
33	0xbdd2a887	-0.1028605
34	0xbde95fcf	-0.11395227
35	0xbdd40932	-0.10353316
36	0x3d09fd7f	0.03368902
37	0xbebafb03	-0.36519632
38	0xbdd885fa	-0.10572429
39	0xbe4f2950	-0.20230603
40	0xbe8c6ffe	-0.27429193
41	0x3d1ad068	0.037796408
42	0xbeb5e4e5	-0.35526195
43	0xbeddfc16	-0.4335639
44	0xbe0b20f1	-0.13586785
45	0xbd477c73	-0.04870267
46	0x3e303d25	0.17210825
47	0xbdc74f0e	-0.09731875
48	0x3d2df5ba	0.04247067
49	0xbd2ad0fb	-0.041703206
50	0xbe3d7ce7	-0.18504678
51	0xbdb66bc0	-0.089072704
52	0xbdcade8d	-0.099057294
53	0xbdd8bd4f	-0.10582983
54	0xbd8878f4	-0.06663695
55	0xbd99888a	-0.07496746
56	0xbe11d066	-0.14239654
57	0xbdd067c8	-0.10176045
58	0xbe86c1d6	-0.2631976
59	0xbe51a580	-0.2047329
60	0xbe05f529	-0.13081802
61	0xbea795b7	-0.3273141
62	0xbef297f5	-0.4738156
63	0xbd901e28	-0.07037002

network.1.conv2.weight f4 [64, 64, 3]
0	0x3e088e27	0.13335477
1	0xbdb25fb8	-0.08709663
2	0xbd667c0e	-0.05627065
3	0x3ddad545	0.10685209
4	0xbda83345	-0.08212904
5	0xbdfb7cab	-0.12279638
6	0xbdf54ec7	-0.11977916
7	0xbddbfbf3	-0.10741415
8	0xbe8b08e5	-0.27155223
9	0xbdeb6bd3	-0.11495175
10	0x3d500d4f	0.050793942
11	0xbe6340a6	-0.2219263
12	0xbdee03f0	-0.11621845
13	0x3d0d0a69	0.034433756
14	0xbe47a713	-0.19497328
15	0xbdad1c85	-0.08452705
16	0xbe47b449	-0.19502367
17	0xbddcd023	-0.107818864
18	0x3bb47d92	0.005508133
19	0xbb23a193	-0.0024968132
20	0xbcd48e9f	-0.025946913
21	0x3c96cbd1	0.018407734
22	0x3dbef501	0.093240745
23	0x3d3ceadb	0.046122413
24	0xbd4a9c3c	-0.049465403
25	0xbd9c55eb	-0.07633575
26	0x3e16c089	0.14721884
27	0xbeb0e838	-0.3455217
28	0xbe7c7a70	-0.24656081
29	0xbcdf4cc4	-0.027258284
30	0xbe09b8f5	-0.13449462
31	0xbd34d1c2	-0.044145353
32	0xbe1dae49	-0.15398516
33	0x3c9d2edf	0.019187389
34	0xbd089704	-0.033347145
35	0x3c0ceab1	0.008600877
36	0x3d8caf98	0.06869429
37	0x3d8d5237	0.06900447
38	0xbd4f9c6a	-0.050686277
39	0xbd280e05	-0.041028995
40	0x3d68eaa2	0.05686439
41	0xba29e1a9	-0.00064804644
42	0xbe5ec0e4	-0.2175327
43	0xbe0c9148	-0.13727295
44	0xbdcf5d17	-0.10125177
45	0xbc48a058	-0.01224526
46	0x3bd1f407	0.006407264
47	0xba0f4031	-0.00054645824
48	0xbdf59967	-0.1199215
49	0x3cd5efe4	0.026115365
50	0xbca1fb34	-0.019773103
51	0x3ceef73a	0.029170621
52	0x3dea020f	0.11426174
53	0xbe223471	-0.15840317
54	0xbe0cf669	-0.13765873
55	0xbe135ccc	-0.14390868
56	0xbca6cf96	-0.020362657
57	0x3e3d7fdd	0.18505807
58	0x3c8aecfd	0.016958708
59	0x3c8fad22	0.01753861
60	0xbd6bedc3	-0.057599794
61	0x3c9e04b2	0.019289348
62	0xbe32a61c	-0.17446178
63	0xbc84f324	-0.01622922
64	0xbcd53b19	-0.026029157
65	0xbcbd4844	-0.023105748
66	0xbab85946	-0.0014064691
67	0xba95e6ae	-0.0011436546
68	0xb826360d	-3.9627823e-05
69	0xbec215f2	-0.37907368
70	0xbe62d326	-0.22150859
71	0xbddb224d	-0.10699902
72	0x3ded5444	0.11588338
73	0x3df9c1de	0.1219518
74	0xbb73b63e	-0.0037187482
75	0x3d8f4ebf	0.069974415
76	0x3d4e94b3	0.05043478
77	0xbde8a4e1	-0.11359573
78	0x3c82d74d	0.015971804
79	0xbb7ba33e	-0.003839686
80	0xbc0f4341	-0.008744062
81	0x3c4e1b3b	0.012579734
82	0x3cc27666	0.023738097
83	0x3c5add4b	0.013358424
84	0x3d080df0	0.033216417
85	0xbd3c60c8	-0.045990735
86	0xbd3fe4ce	-0.046849065
87	0xbe3a0a87	-0.18168078
88	0xbd9a1607	-0.07523733
89	0x3cfe673c	0.031055085
90	0xbe327476	-0.17427239
91	0x3c94026e	0.018067565
92	0x3daf8221	0.08569742
93	0xbe5b96ad	-0.21444197
94	0xbde67a97	-0.11253851
95	0xbe821d8f	-0.25413176
96	0xbc48cf78	-0.012256496
97	0x3d8de77e	0.06928919
98	0xbdbd2d54	-0.09237161
99	0xbd32b266	-0.043627165
100	0xbd2d310e	-0.04228311
101	0xbd502d1e	-0.050824277
102	0x3ca1590b	0.01969578
103	0x3c2364d1	0.009972767
104	0xbcc43dcc	-0.023955248
105	0xbe1896dc	-0.14901298
106	0x3d86f6c1	0.06590033
107	0xbd09b07c	-0.033615574
108	0xbba5f7ce	-0.005064941
109	0xbd6dcb9d	-0.05805551
110	0xbd57255e	-0.05252587
111	0xbc54b74b	-0.012983154
112	0xbd92c681	-0.07166768
113	0x3ddc6315	0.10761086
114	0x3c62c268	0.013840295
115	0xbe048186	-0.12940034
116	0xbe0c5da5	-0.13707598
117	0xbda2f2da	-0.079564765
118	0xbe0d37ef	-0.13790868
119	0xbe90148b	-0.28140673
120	0xbdafc7fe	-0.08583067
121	0x3e2d4ba4	0.16923386
122	0x3dbad948	0.09123474
123	0xbc2c61ae	-0.0105213355
124	0x3e1634a3	0.14668517
125	0xbe5ad15e	-0.2136893
126	0xbcf4fde5	-0.029906223
127	0xbd8d1a60	-0.06889796
128	0xbd28192b	-0.041039627
129	0xbc201af8	-0.009772055
130	0x3cd18d12	0.025579963
131	0xbdf91996	-0.12163083
132	0x3da8b3dc	0.082374305
133	0xbd94daf2	-0.07268323
134	0xbe3d049e	-0.18458793
135	0xbd33906b	-0.0438389
136	0x3da3c82a	0.07997163
137	0xbe2b80b6	-0.16748318
138	0xbe2a7d9f	-0.16649483
139	0xbe77c280	-0.2419529
140	0xbd39238b	-0.045199912
141	0x3a4422a5	0.0007481969
142	0xbc64a588	-0.013955481
143	0x3b548329	0.003242681
144	0xbe49a361	-0.1969123
145	0x3d4b0ada	0.049570896
146	0x3d290018	0.041259855
147	0x3cc3d042	0.023903016
148	0x3cb4584e	0.022014763
149	0xbac0e64d	-0.0014717072
150	0xbc4716e4	-0.012151454
151	0x3d472008	0.04861453
152	0x3d9c1b0f	0.076223485
153	0xbe0b5459	-0.13606395
154	0x3defb567	0.117045216
155	0x3e2b40d2	0.16723946
156	0xbd8fb427	-0.07016783
157	0x3d301eff	0.04299831
158	0x3de91d67	0.11382561
159	0x3c0f12e4	0.008732531
160	0xbd1d172c	-0.038352177
161	0xbd0a4a5c	-0.03376232
162	0x3be2b898	0.006918978
163	0x3b9751f3	0.0046179234
164	0xbba01177	-0.0048848945
165	0x3cced3fb	0.025247565
166	0x3c0883e6	0.008332228
167	0xb69be6ef	-4.646244e-06
168	0xbd0f8fdc	-0.035049304
169	0xbcbf99fb	-0.023388853
170	0x3d681a92	0.056665964
171	0x3c92b3e4	0.017908044
172	0x3e19b9f1	0.15012337
173	0x3d77cb0b	0.06049637
174	0x3d0384ed	0.03210919
175	0x3cfe58ac	0.031048141
176	0x3d6f2721	0.058386926
177	0x3d3c40c8	0.045960218
178	0x3d3f9e91	0.04678208
179	0xbd1dd4c2	-0.03853298
180	0x3ce6450b	0.028109094
181	0xbbfab6be	-0.007651179
182	0x3c6a055f	0.014283507
183	0xbca1332b	-0.01967772
184	0xbdc113c4	-0.09427598
185	0xbc970536	-0.018435102
186	0xbcca4a68	-0.024693683
187	0x3ceb6921	0.028736653
188	0x3da8f00f	0.082489125
189	0x3dc2a277	0.09503644
190	0xbc64234a	-0.013924429
191	0xbc1689b7	-0.009188107
192	0xbdc77f18	-0.09741038
193	0x3ddfdff2	0.10931386
194	0xbcec0ec5	-0.028815636
195	0xbde87be4	-0.11351755
196	0x3e04788c	0.1293661
197	0xbd6dd114	-0.05806072
198	0xbe10eab4	-0.14152032
199	0xbd001276	-0.031267606
200	0x3d0cf15c	0.034409866
201	0xbdeec3d9	-0.11658449
202	0xbdb1f175	-0.086886324
203	0xbd5fc031	-0.054626647
204	0xbc93da13	-0.018048322
205	0xbdd0f7c5	-0.10203508
206	0x3cf3581a	0.029705096
207	0xbd56de28	-0.05245796
208	0xbd8f92ed	-0.07010446
209	0xbd5fe289	-0.0546594
210	0xb99259d1	-0.00027914208
211	0x3a25a671	0.0006319052
212	0xbc02f6a2	-0.007993372
213	0xbadd96c3	-0.0016905892
214	0xbbfe9d0f	-0.0077701877
215	0x3c3a30ab	0.011364142
216	0x3d190770	0.03736061
217	0xbd7fdd6c	-0.062467024
218	0xbd6e43ae	-0.058170013
219	0x396be2b1	0.00022495796
220	0xbd135e19	-0.03597841
221	0xbda4a3d9	-0.08039064
222	0xbd7a763f	-0.061147925
223	0xbd753740	-0.059867144
224	0x3c624f5d	0.013812867
225	0x3c793a9e	0.015211729
226	0xbcffba75	-0.03121684
227	0x3ce0dab6	0.02744804
228	0xbdb1a53a	-0.086740926
229	0x3b3fe1fa	0.002927898
230	0x3ca04fe4	0.019569345
231	0xbe05e3af	-0.13075136
232	0x3c8f1edf	0.017470775
233	0xbd4fa8ca	-0.05069808
234	0x3db793ac	0.08963713
235	0x3bab07ee	0.005219451
236	0xbb4e76f0	-0.0031503998
237	0xbcb98512	-0.02264646
238	0x3c761e4d	0.015021873
239	0xbc9c84bd	-0.019106263
240	0xbc03f643	-0.008054319
241	0x3d9dbb8f	0.077017896
242	0xbd3fd60a	-0.046834983
243	0x3cc2367e	0.023707625
244	0xbdba4446	-0.090950534
245	0xbe33b8e5	-0.17551
246	0x3d542e68	0.05180207
247	0xbd9bae66	-0.07601623
248	0xbd7c8629	-0.061651383
249	0xbd1924d8	-0.037388653
250	0xbcfa148e	-0.03052738
251	0xbce42724	-0.027850695
252	0x3b74b7d2	0.003734101
253	0xbd953e5c	-0.07287285
254	0xbd3f983a	-0.046776034
255	0x3d50ca4d	0.05097418

network.1.conv2.bias f4 [64]
0	0x3e269a31	0.16269757
1	0xbd71909b	-0.058975797
2	0xbda6c7e3	-0.08143594
3	0xbd9bc1aa	-0.07605298
4	0x3e50390b	0.2033426
5	0x3c428109	0.011871585
6	0xbd0a5efa	-0.033781983
7	0xbdde4072	-0.10852136
8	0xbcf4d297	-0.029885573
9	0x3ec8bdac	0.39207208
10	0xbe0b7144	-0.13617426
11	0xbdd3b65e	-0.10337518
12	0xbd8043cc	-0.06262931
13	0xbd959db3	-0.07305469
14	0xbdc667be	-0.09687756
15	0xbd3dfaaf	-0.04638165
16	0xbd1ab257	-0.037767734
17	0xbd22df0f	-0.039763507
18	0xbd14b04e	-0.03630095
19	0xbd691859	-0.056907985
20	0xbcd83328	-0.02639158
21	0xbdba85b4	-0.09107533
22	0xbe18fe82	-0.14940837
23	0x3e67604c	0.22595328
24	0x3e5f6d65	0.21819074
25	0x3e205963	0.15659098
26	0x3ed7c722	0.42144114
27	0x3e96c0d3	0.29443988
28	0xbdda0dbd	-0.106471516
29	0xbda9c1f9	-0.082889505
30	0xbda45d92	-0.080256596
31	0xbd95ef44	-0.07321027
32	0x3d4a36da	0.049368717
33	0xbd3c79b8	-0.046014518
34	0x3e92320e	0.28553814
35	0xbd9d2cc1	-0.07674552
36	0x3f12b1b7	0.5730242
37	0xbd77011a	-0.060303785
38	0xbd0a9d33	-0.033841323
39	0xbd808977	-0.06276219
40	0xbd242165	-0.04007091
41	0xbd10224a	-0.03518895
42	0xbddc8425	-0.10767392
43	0x3e4f86de	0.20266291
44	0xbd93e4a8	-0.07221347
45	0x3ab58c9f	0.0013851112
46	0xbdda671f	-0.106642
47	0xbdf1c4a5	-0.11805085
48	0xbd9231b7	-0.071383886
49	0x3cf4d91c	0.029888682
50	0x3e95b9b3	0.2924324
51	0xbd65b006	-0.056076072
52	0x3dea3569	0.114359684
53	0x3ee79c56	0.45236462
54	0xbcdea0e2	-0.027176324
55	0xbdf7f2de	-0.1210687
56	0xbdc6f80e	-0.097152814
57	0xbd5ac16e	-0.053407125
58	0xbd9a98df	-0.07548689
59	0xba978651	-0.0011560415
60	0x3e4b4e9f	0.1985421
61	0x3ebbbaa2	0.36665827
62	0xbdc2db47	-0.0951448
63	0xbd7a0b59	-0.06104598

network.2.conv1.weight f4 [64, 64, 3]
0	0xba4836f0	-0.0007637581
1	0x3e37b82e	0.17941353
2	0x3ea90c04	0.3301698
3	0xbe033ecf	-0.12816928
4	0xbdca7254	-0.098850876
5	0xbd6c5438	-0.057697505
6	0x3d85b22e	0.06528126
7	0xbc6852d6	-0.014179906
8	0xbd8ced61	-0.06881214
9	0xbccb6a66	-0.024831008
10	0xbdecf74e	-0.11570607
11	0xbd3be07d	-0.045868386
12	0xbda825e9	-0.08210356
13	0xbb63a656	-0.0034736595
14	0x3d13c967	0.036080744
15	0xbda34454	-0.07972017
16	0x3dba8f70	0.0910939
17	0xbe429ac8	-0.19004357
18	0x3c9d492e	0.019199934
19	0x3c35adbd	0.011088786
20	0x3e818e9b	0.25304112
21	0x3c8e4621	0.017367424
22	0x3c30ae29	0.0107837105
23	0xbcffc7d0	-0.031223208
24	0xbd22a812	-0.039711066
25	0xbd816776	-0.06318562
26	0xbd121057	-0.035660114
27	0x3c7325ac	0.014840525
28	0x3d7a46bf	0.061102625
29	0x3dbed96a	0.09318812
30	0x3db8b9fa	0.09019847
31	0x3e57f297	0.21088634
32	0xbd3bcf06	-0.04585173
33	0x3de0a241	0.109684475
34	0x3db32694	0.087475926
35	0x3ca58ef6	0.02020977
36	0x3dfeeafc	0.124471635
37	0x3c90be16	0.017668765
38	0x3da3e3c7	0.080024295
39	0x3cf91155	0.030403772
40	0x3dbc0be8	0.091819584
41	0x3d0f65fd	0.035009373
42	0xbb36b2ed	-0.0027877644
43	0x3c8d8d7f	0.017279385
44	0x3afeef81	0.001945004
45	0x3c319bd9	0.01084038
46	0x3d90e1b8	0.070743024
47	0x3c0c4ccb	0.008563231
48	0x3d8cd478	0.06876463
49	0xbdb16c72	-0.086632624
50	0xbd93e830	-0.072220206
51	0x3d6f73f5	0.058460195
52	0x3d3a4b5c	0.045482025
53	0x3c83c406	0.016084682
54	0xbced9bda	-0.02900498
55	0xbc1a886c	-0.00943194
56	0x3e14a7f3	0.14517193
57	0x3d5f71b0	0.05455178
58	0x3ba877bb	0.005141226
59	0xbdb76eb3	-0.08956661
60	0x3d1aba44	0.037775293
61	0x3e87da4e	0.2653374
62	0x3e4af894	0.19821388
63	0x3d922709	0.071363516
64	0xbc122c5c	-0.008921709
65	0x3ce4c914	0.027927913
66	0x3a0ad6a4	0.0005296266
67	0x3dbe7ac0	0.093007565
68	0x3e054b9d	0.13017125
69	0xbd520898	-0.051277727
70	0x3e22c608	0.15895855
71	0x3eb9df77	0.36303303
72	0x3cd88470	0.026430339
73	0x3d410903	0.047127735
74	0xbebb5523	-0.36588392
75	0x3d2c61d1	0.042085472
76	0xbdf3ea36	-0.119099066
77	0xbe9f0230	-0.31056356
78	0xbcbb48a9	-0.022861795
79	0xbcf1ce8c	-0.029517435
80	0x3cf8ac49	0.03035559
81	0x3d5d3e94	0.054014757
82	0xbd248887	-0.040169265
83	0x3d4c2060	0.049835563
84	0x3d9b18eb	0.07573112
85	0xbd0f979b	-0.03505669
86	0xbae02e68	-0.0017103674
87	0xbd1ccde2	-0.038282283
88	0xbda260ea	-0.07928641
89	0xbe0a67b5	-0.13516124
90	0xbd17d1c7	-0.037065294
91	0x3b9914bd	0.0046716616
92	0x3ce18c25	0.027532646
93	0x3cf52c7d	0.02992844
94	0xbaf0abf8	-0.0018361798
95	0x3d05343d	0.03252052
96	0x3c167655	0.009183486
97	0x3b4422b4	0.0029927911
98	0xbd1796a8	-0.03700891
99	0x3d96a3f7	0.073554926
100	0xbb652a14	-0.0034967707
101	0xbe05f3ef	-0.13081335
102	0xbdec9afd	-0.11552999
103	0xbc027f86	-0.007964974
104	0x3e65905e	0.22418353
105	0x3d3881c6	0.045045637
106	0x3df30d8b	0.118678175
107	0x3e03da38	0.12876213
108	0xbe1cde5f	-0.15319203
109	0x3e0775d9	0.13228549
110	0x3e0b7215	0.13617738
111	0x3c3f9506	0.011693245
112	0x3d24938f	0.040179785
113	0xbef763a3	-0.48318204
114	0x3c85400b	0.01626589
115	0xbc45f556	-0.012082418
116	0xbde6f30e	-0.11276828
117	0x3c533e53	0.012893277
118	0xbd6a1ddd	-0.057157386
119	0x3dbad584	0.09122756
120	0x3cea7cc7	0.028623952
121	0xbd8e895b	-0.06959792
122	0x3c292c13	0.0103254495
123	0xbd5a7b29	-0.05334011
124	0x3d5460a5	0.05184998
125	0x3acaff86	0.0015487529
126	0x3c97b42a	0.018518526
127	0x3d915241	0.07095767
128	0x3bba0353	0.005676666
129	0xbdcf637b	-0.10126396
130	0xbdd5d1d7	-0.104404144
131	0xbca3c2e1	-0.019990386
132	0xbd69f863	-0.057121646
133	0x3c4af8dc	0.012388434
134	0xbda558e4	-0.08073595
135	0xbb45b96b	-0.0030170332
136	0xbdb0bc7e	-0.08629702
137	0x3c80a95d	0.015705759
138	0xbdae19c9	-0.08501012
139	0x3d842b16	0.064535305
140	0x3dabc8d6	0.08387916
141	0x3d215be5	0.039394278
142	0x3dc0a478	0.0940637
143	0x3e2c38a0	0.16818476
144	0xbe2a05b6	-0.16603741
145	0x3ca915e9	0.02064033
146	0x3e82aef8	0.25524116
147	0x3da95ac9	0.08269269
148	0x3e1f6127	0.15564404
149	0xbdbc25fa	-0.09186931
150	0xbd4087b0	-0.0470044
151	0xbdde0cd0	-0.108422875
152	0x3e69a4de	0.22816798
153	0xbc91b358	-0.017785713
154	0x3cb03ca6	0.021513294
155	0xbde162b4	-0.11005154
156	0x3e6002c3	0.21876054
157	0xbe04c123	-0.12964301
158	0xbd9341d7	-0.07190292
159	0x3e70ea23	0.23526816
160	0x3e0171db	0.12641089
161	0x3e3837f0	0.17990088
162	0xbbd242be	-0.0064166477
163	0xbd170196	-0.036866747
164	0x3d18ee0f	0.037336405
165	0x3c08f0e9	0.008358219
166	0xbc2378eb	-0.00997756
167	0x3be0174a	0.006838714
168	0x3a241fad	0.00062608236
169	0xbd78fff1	-0.06079096
170	0xbd4846ad	-0.048895527
171	0xbe2ccb09	-0.16874327
172	0xbe4f1f68	-0.20226824
173	0xbe0d6e65	-0.13811643
174	0xbe1c3208	-0.1525346
175	0xbdb769a6	-0.08955698
176	0xbd034779	-0.032050584
177	0x3df8d816	0.1215059
178	0xbd330fe6	-0.043716334
179	0x3c9509dd	0.01819318
180	0x3cb87d5b	0.022520712
181	0x3c0d752f	0.008633896
182	0x3d003142	0.031296976
183	0xbe0fc98a	-0.14041725
184	0x3d412da8	0.04716268
185	0xbcdfba2b	-0.027310451
186	0x3c6c60e8	0.014427401
187	0xbccbc12e	-0.024872389
188	0xbcb08225	-0.021546433
189	0x3d82ff69	0.06396372
190	0x3bab21aa	0.005222519
191	0x3da9ef98	0.08297652
192	0xbe78c01c	-0.24292034
193	0xbe0ddb59	-0.13853206
194	0x3e10e453	0.14149599
195	0xbe1ae3af	-0.15125917
196	0xbe01c938	-0.12674415
197	0xbd9cf2f9	-0.07663531
198	0xbb386cfe	-0.0028141136
199	0xbc6443c5	-0.013932173
200	0xbd3ac765	-0.045600314
201	0xbd52c0a9	-0.051453266
202	0x3d3eecdc	0.046612605
203	0x3ba86d2b	0.005139967
204	0x3dc40932	0.09572066
205	0x3d81f39f	0.06345295
206	0xbc5d7a47	-0.013517923
207	0xbde75436	-0.11295359
208	0xbd8b5934	-0.068041235
209	0xbda87de2	-0.08227135
210	0xbc65f28d	-0.014034879
211	0xbb5ab01c	-0.003336913
212	0x3e2bc9ff	0.16776274
213	0xbd85a994	-0.06526485
214	0x3dd203fd	0.10254667
215	0x3e195b82	0.14976314
216	0x3cc6533f	0.024209617
217	0x3bb54fe8	0.005533207
218	0x3d168389	0.036746535
219	0x3dd59d68	0.104304135
220	0x3db1ff89	0.086913176
221	0x3c9ff001	0.019523622
222	0x3b41195f	0.0029464585
223	0x3e478edc	0.1948809
224	0x3bdb8c63	0.006700085
225	0x3c1f115d	0.00970873
226	0x3d095e95	0.033537466
227	0x3d8239b0	0.06358659
228	0x3c95e936	0.01829968
229	0x3d8a1557	0.067423515
230	0xbd24a402	-0.040195473
231	0x3d46d476	0.048542462
232	0xbcc7db7a	-0.024396647
233	0xbcc9e5e7	-0.024645759
234	0xbcdad4af	-0.026712744
235	0x3c9f2f10	0.01943162
236	0x3c904154	0.017609276
237	0xbd878932	-0.06617965
238	0xbdc99a26	-0.098438546
239	0xbe1a2a6f	-0.1505525
240	0xbd1c41f9	-0.038148854
241	0xbd155fa7	-0.036468174
242	0xbc4c1d80	-0.012458205
243	0x3ceb2410	0.02870372
244	0xbc49fe9f	-0.012328773
245	0xbc72a490	-0.014809743
246	0xbd93e3ad	-0.0722116
247	0xbd406223	-0.04696859
248	0xbcb646c3	-0.022250539
249	0xbd6b63f9	-0.05746839
250	0x3c315fb7	0.010826043
251	0x3c178cee	0.009249909
252	0x3d327e64	0.043577567
253	0x3d0e9f6b	0.03482
254	0xbb990873	-0.0046701967
255	0x3d010648	0.03150013
